…
train_root			/mnt/lustre/liushinan/data_new/CarKeypoint/GOD_715_batch1_frames/
train_source		/mnt/lustre/liushinan/data_new/CarKeypoint/VehPoint_GOD_715_batch1.txt
split				False
batch_size			36
workers				2
expname				DNET_SB_12_KP
------------------------------------------
This is Simple baseline network
This is Simple baseline network
This is Simple baseline network
This is Simple baseline network
This is Simple baseline network
This is Simple baseline network
This is Simple baseline network
This is Simple baseline network
SB(
  (backbone): Dnet(
    (conv1): Conv2d (3, 32, kernel_size=(5, 5), stride=(2, 2), padding=(2, 2), bias=False)
    (bn1): BatchNorm2d(32, eps=1e-05, momentum=0.1, affine=True)
    (relu): ReLU(inplace)
    (maxpool): MaxPool2d(kernel_size=(3, 3), stride=(2, 2), padding=(1, 1), dilation=(1, 1))
    (avgpool): AvgPool2d(kernel_size=7, stride=1, padding=0, ceil_mode=False, count_include_pad=True)
    (layer1): Sequential(
      (0): Bottleneck(
        (block1): BasicBlock1x1(
          (conv1): Conv2d (64, 32, kernel_size=(1, 1), stride=(1, 1), bias=False)
          (bn1): BatchNorm2d(32, eps=1e-05, momentum=0.1, affine=True)
          (relu): ReLU(inplace)
        )
        (block2): BasicBlock3x3(
          (conv1): Conv2d (32, 16, kernel_size=(3, 3), stride=(1, 1), padding=(1, 1), bias=False)
          (bn1): BatchNorm2d(16, eps=1e-05, momentum=0.1, affine=True)
          (relu): ReLU(inplace)
        )
        (block3): BasicBlock3x3(
          (conv1): Conv2d (16, 8, kernel_size=(3, 3), stride=(1, 1), padding=(1, 1), bias=False)
          (bn1): BatchNorm2d(8, eps=1e-05, momentum=0.1, affine=True)
          (relu): ReLU(inplace)
        )
        (block4): BasicBlock3x3(
          (conv1): Conv2d (8, 8, kernel_size=(3, 3), stride=(1, 1), padding=(1, 1), bias=False)
          (bn1): BatchNorm2d(8, eps=1e-05, momentum=0.1, affine=True)
          (relu): ReLU(inplace)
        )
        (downsample): Sequential(
          (0): Conv2d (32, 64, kernel_size=(1, 1), stride=(1, 1), bias=False)
          (1): BatchNorm2d(64, eps=1e-05, momentum=0.1, affine=True)
          (2): ReLU(inplace)
          (3): MaxPool2d(kernel_size=(3, 3), stride=(2, 2), padding=(1, 1), dilation=(1, 1))
        )
      )
      (1): Bottleneck(
        (block1): BasicBlock1x1(
          (conv1): Conv2d (64, 32, kernel_size=(1, 1), stride=(1, 1), bias=False)
          (bn1): BatchNorm2d(32, eps=1e-05, momentum=0.1, affine=True)
          (relu): ReLU(inplace)
        )
        (block2): BasicBlock3x3(
          (conv1): Conv2d (32, 16, kernel_size=(3, 3), stride=(1, 1), padding=(1, 1), bias=False)
          (bn1): BatchNorm2d(16, eps=1e-05, momentum=0.1, affine=True)
          (relu): ReLU(inplace)
        )
        (block3): BasicBlock3x3(
          (conv1): Conv2d (16, 8, kernel_size=(3, 3), stride=(1, 1), padding=(1, 1), bias=False)
          (bn1): BatchNorm2d(8, eps=1e-05, momentum=0.1, affine=True)
          (relu): ReLU(inplace)
        )
        (block4): BasicBlock3x3(
          (conv1): Conv2d (8, 8, kernel_size=(3, 3), stride=(1, 1), padding=(1, 1), bias=False)
          (bn1): BatchNorm2d(8, eps=1e-05, momentum=0.1, affine=True)
          (relu): ReLU(inplace)
        )
      )
    )
    (layer2): Sequential(
      (0): Bottleneck(
        (block1): BasicBlock1x1(
          (conv1): Conv2d (128, 64, kernel_size=(1, 1), stride=(1, 1), bias=False)
          (bn1): BatchNorm2d(64, eps=1e-05, momentum=0.1, affine=True)
          (relu): ReLU(inplace)
        )
        (block2): BasicBlock3x3(
          (conv1): Conv2d (64, 32, kernel_size=(3, 3), stride=(1, 1), padding=(1, 1), bias=False)
          (bn1): BatchNorm2d(32, eps=1e-05, momentum=0.1, affine=True)
          (relu): ReLU(inplace)
        )
        (block3): BasicBlock3x3(
          (conv1): Conv2d (32, 16, kernel_size=(3, 3), stride=(1, 1), padding=(1, 1), bias=False)
          (bn1): BatchNorm2d(16, eps=1e-05, momentum=0.1, affine=True)
          (relu): ReLU(inplace)
        )
        (block4): BasicBlock3x3(
          (conv1): Conv2d (16, 16, kernel_size=(3, 3), stride=(1, 1), padding=(1, 1), bias=False)
          (bn1): BatchNorm2d(16, eps=1e-05, momentum=0.1, affine=True)
          (relu): ReLU(inplace)
        )
        (downsample): Sequential(
          (0): Conv2d (64, 128, kernel_size=(1, 1), stride=(1, 1), bias=False)
          (1): BatchNorm2d(128, eps=1e-05, momentum=0.1, affine=True)
          (2): ReLU(inplace)
          (3): MaxPool2d(kernel_size=(3, 3), stride=(2, 2), padding=(1, 1), dilation=(1, 1))
        )
      )
      (1): Bottleneck(
        (block1): BasicBlock1x1(
          (conv1): Conv2d (128, 64, kernel_size=(1, 1), stride=(1, 1), bias=False)
          (bn1): BatchNorm2d(64, eps=1e-05, momentum=0.1, affine=True)
          (relu): ReLU(inplace)
        )
        (block2): BasicBlock3x3(
          (conv1): Conv2d (64, 32, kernel_size=(3, 3), stride=(1, 1), padding=(1, 1), bias=False)
          (bn1): BatchNorm2d(32, eps=1e-05, momentum=0.1, affine=True)
          (relu): ReLU(inplace)
        )
        (block3): BasicBlock3x3(
          (conv1): Conv2d (32, 16, kernel_size=(3, 3), stride=(1, 1), padding=(1, 1), bias=False)
          (bn1): BatchNorm2d(16, eps=1e-05, momentum=0.1, affine=True)
          (relu): ReLU(inplace)
        )
        (block4): BasicBlock3x3(
          (conv1): Conv2d (16, 16, kernel_size=(3, 3), stride=(1, 1), padding=(1, 1), bias=False)
          (bn1): BatchNorm2d(16, eps=1e-05, momentum=0.1, affine=True)
          (relu): ReLU(inplace)
        )
      )
      (2): Bottleneck(
        (block1): BasicBlock1x1(
          (conv1): Conv2d (128, 64, kernel_size=(1, 1), stride=(1, 1), bias=False)
          (bn1): BatchNorm2d(64, eps=1e-05, momentum=0.1, affine=True)
          (relu): ReLU(inplace)
        )
        (block2): BasicBlock3x3(
          (conv1): Conv2d (64, 32, kernel_size=(3, 3), stride=(1, 1), padding=(1, 1), bias=False)
          (bn1): BatchNorm2d(32, eps=1e-05, momentum=0.1, affine=True)
          (relu): ReLU(inplace)
        )
        (block3): BasicBlock3x3(
          (conv1): Conv2d (32, 16, kernel_size=(3, 3), stride=(1, 1), padding=(1, 1), bias=False)
          (bn1): BatchNorm2d(16, eps=1e-05, momentum=0.1, affine=True)
          (relu): ReLU(inplace)
        )
        (block4): BasicBlock3x3(
          (conv1): Conv2d (16, 16, kernel_size=(3, 3), stride=(1, 1), padding=(1, 1), bias=False)
          (bn1): BatchNorm2d(16, eps=1e-05, momentum=0.1, affine=True)
          (relu): ReLU(inplace)
        )
      )
    )
    (layer3): Sequential(
      (0): Bottleneck(
        (block1): BasicBlock1x1(
          (conv1): Conv2d (256, 128, kernel_size=(1, 1), stride=(1, 1), bias=False)
          (bn1): BatchNorm2d(128, eps=1e-05, momentum=0.1, affine=True)
          (relu): ReLU(inplace)
        )
        (block2): BasicBlock3x3(
          (conv1): Conv2d (128, 64, kernel_size=(3, 3), stride=(1, 1), padding=(1, 1), bias=False)
          (bn1): BatchNorm2d(64, eps=1e-05, momentum=0.1, affine=True)
          (relu): ReLU(inplace)
        )
        (block3): BasicBlock3x3(
          (conv1): Conv2d (64, 32, kernel_size=(3, 3), stride=(1, 1), padding=(1, 1), bias=False)
          (bn1): BatchNorm2d(32, eps=1e-05, momentum=0.1, affine=True)
          (relu): ReLU(inplace)
        )
        (block4): BasicBlock3x3(
          (conv1): Conv2d (32, 32, kernel_size=(3, 3), stride=(1, 1), padding=(1, 1), bias=False)
          (bn1): BatchNorm2d(32, eps=1e-05, momentum=0.1, affine=True)
          (relu): ReLU(inplace)
        )
        (downsample): Sequential(
          (0): Conv2d (128, 256, kernel_size=(1, 1), stride=(1, 1), bias=False)
          (1): BatchNorm2d(256, eps=1e-05, momentum=0.1, affine=True)
          (2): ReLU(inplace)
          (3): MaxPool2d(kernel_size=(3, 3), stride=(2, 2), padding=(1, 1), dilation=(1, 1))
        )
      )
      (1): Bottleneck(
        (block1): BasicBlock1x1(
          (conv1): Conv2d (256, 128, kernel_size=(1, 1), stride=(1, 1), bias=False)
          (bn1): BatchNorm2d(128, eps=1e-05, momentum=0.1, affine=True)
          (relu): ReLU(inplace)
        )
        (block2): BasicBlock3x3(
          (conv1): Conv2d (128, 64, kernel_size=(3, 3), stride=(1, 1), padding=(1, 1), bias=False)
          (bn1): BatchNorm2d(64, eps=1e-05, momentum=0.1, affine=True)
          (relu): ReLU(inplace)
        )
        (block3): BasicBlock3x3(
          (conv1): Conv2d (64, 32, kernel_size=(3, 3), stride=(1, 1), padding=(1, 1), bias=False)
          (bn1): BatchNorm2d(32, eps=1e-05, momentum=0.1, affine=True)
          (relu): ReLU(inplace)
        )
        (block4): BasicBlock3x3(
          (conv1): Conv2d (32, 32, kernel_size=(3, 3), stride=(1, 1), padding=(1, 1), bias=False)
          (bn1): BatchNorm2d(32, eps=1e-05, momentum=0.1, affine=True)
          (relu): ReLU(inplace)
        )
      )
      (2): Bottleneck(
        (block1): BasicBlock1x1(
          (conv1): Conv2d (256, 128, kernel_size=(1, 1), stride=(1, 1), bias=False)
          (bn1): BatchNorm2d(128, eps=1e-05, momentum=0.1, affine=True)
          (relu): ReLU(inplace)
        )
        (block2): BasicBlock3x3(
          (conv1): Conv2d (128, 64, kernel_size=(3, 3), stride=(1, 1), padding=(1, 1), bias=False)
          (bn1): BatchNorm2d(64, eps=1e-05, momentum=0.1, affine=True)
          (relu): ReLU(inplace)
        )
        (block3): BasicBlock3x3(
          (conv1): Conv2d (64, 32, kernel_size=(3, 3), stride=(1, 1), padding=(1, 1), bias=False)
          (bn1): BatchNorm2d(32, eps=1e-05, momentum=0.1, affine=True)
          (relu): ReLU(inplace)
        )
        (block4): BasicBlock3x3(
          (conv1): Conv2d (32, 32, kernel_size=(3, 3), stride=(1, 1), padding=(1, 1), bias=False)
          (bn1): BatchNorm2d(32, eps=1e-05, momentum=0.1, affine=True)
          (relu): ReLU(inplace)
        )
      )
      (3): Bottleneck(
        (block1): BasicBlock1x1(
          (conv1): Conv2d (256, 128, kernel_size=(1, 1), stride=(1, 1), bias=False)
          (bn1): BatchNorm2d(128, eps=1e-05, momentum=0.1, affine=True)
          (relu): ReLU(inplace)
        )
        (block2): BasicBlock3x3(
          (conv1): Conv2d (128, 64, kernel_size=(3, 3), stride=(1, 1), padding=(1, 1), bias=False)
          (bn1): BatchNorm2d(64, eps=1e-05, momentum=0.1, affine=True)
          (relu): ReLU(inplace)
        )
        (block3): BasicBlock3x3(
          (conv1): Conv2d (64, 32, kernel_size=(3, 3), stride=(1, 1), padding=(1, 1), bias=False)
          (bn1): BatchNorm2d(32, eps=1e-05, momentum=0.1, affine=True)
          (relu): ReLU(inplace)
        )
        (block4): BasicBlock3x3(
          (conv1): Conv2d (32, 32, kernel_size=(3, 3), stride=(1, 1), padding=(1, 1), bias=False)
          (bn1): BatchNorm2d(32, eps=1e-05, momentum=0.1, affine=True)
          (relu): ReLU(inplace)
        )
      )
    )
  )
  (relu): ReLU(inplace)
  (upsample5): ConvTranspose2d (256, 256, kernel_size=(4, 4), stride=(2, 2), padding=(1, 1))
  (upsample4): ConvTranspose2d (256, 256, kernel_size=(4, 4), stride=(2, 2), padding=(1, 1))
  (bn_s5): BatchNorm2d(256, eps=1e-05, momentum=0.1, affine=True)
  (bn_s4): BatchNorm2d(256, eps=1e-05, momentum=0.1, affine=True)
  (predict3): Conv2d (256, 13, kernel_size=(1, 1), stride=(1, 1))
)
make module dist
SB(
  (backbone): Dnet(
    (conv1): Conv2d (3, 32, kernel_size=(5, 5), stride=(2, 2), padding=(2, 2), bias=False)
    (bn1): BatchNorm2d(32, eps=1e-05, momentum=0.1, affine=True)
    (relu): ReLU(inplace)
    (maxpool): MaxPool2d(kernel_size=(3, 3), stride=(2, 2), padding=(1, 1), dilation=(1, 1))
    (avgpool): AvgPool2d(kernel_size=7, stride=1, padding=0, ceil_mode=False, count_include_pad=True)
    (layer1): Sequential(
      (0): Bottleneck(
        (block1): BasicBlock1x1(
          (conv1): Conv2d (64, 32, kernel_size=(1, 1), stride=(1, 1), bias=False)
          (bn1): BatchNorm2d(32, eps=1e-05, momentum=0.1, affine=True)
          (relu): ReLU(inplace)
        )
        (block2): BasicBlock3x3(
          (conv1): Conv2d (32, 16, kernel_size=(3, 3), stride=(1, 1), padding=(1, 1), bias=False)
          (bn1): BatchNorm2d(16, eps=1e-05, momentum=0.1, affine=True)
          (relu): ReLU(inplace)
        )
        (block3): BasicBlock3x3(
          (conv1): Conv2d (16, 8, kernel_size=(3, 3), stride=(1, 1), padding=(1, 1), bias=False)
          (bn1): BatchNorm2d(8, eps=1e-05, momentum=0.1, affine=True)
          (relu): ReLU(inplace)
        )
        (block4): BasicBlock3x3(
          (conv1): Conv2d (8, 8, kernel_size=(3, 3), stride=(1, 1), padding=(1, 1), bias=False)
          (bn1): BatchNorm2d(8, eps=1e-05, momentum=0.1, affine=True)
          (relu): ReLU(inplace)
        )
        (downsample): Sequential(
          (0): Conv2d (32, 64, kernel_size=(1, 1), stride=(1, 1), bias=False)
          (1): BatchNorm2d(64, eps=1e-05, momentum=0.1, affine=True)
          (2): ReLU(inplace)
          (3): MaxPool2d(kernel_size=(3, 3), stride=(2, 2), padding=(1, 1), dilation=(1, 1))
        )
      )
      (1): Bottleneck(
        (block1): BasicBlock1x1(
          (conv1): Conv2d (64, 32, kernel_size=(1, 1), stride=(1, 1), bias=False)
          (bn1): BatchNorm2d(32, eps=1e-05, momentum=0.1, affine=True)
          (relu): ReLU(inplace)
        )
        (block2): BasicBlock3x3(
          (conv1): Conv2d (32, 16, kernel_size=(3, 3), stride=(1, 1), padding=(1, 1), bias=False)
          (bn1): BatchNorm2d(16, eps=1e-05, momentum=0.1, affine=True)
          (relu): ReLU(inplace)
        )
        (block3): BasicBlock3x3(
          (conv1): Conv2d (16, 8, kernel_size=(3, 3), stride=(1, 1), padding=(1, 1), bias=False)
          (bn1): BatchNorm2d(8, eps=1e-05, momentum=0.1, affine=True)
          (relu): ReLU(inplace)
        )
        (block4): BasicBlock3x3(
          (conv1): Conv2d (8, 8, kernel_size=(3, 3), stride=(1, 1), padding=(1, 1), bias=False)
          (bn1): BatchNorm2d(8, eps=1e-05, momentum=0.1, affine=True)
          (relu): ReLU(inplace)
        )
      )
    )
    (layer2): Sequential(
      (0): Bottleneck(
        (block1): BasicBlock1x1(
          (conv1): Conv2d (128, 64, kernel_size=(1, 1), stride=(1, 1), bias=False)
          (bn1): BatchNorm2d(64, eps=1e-05, momentum=0.1, affine=True)
          (relu): ReLU(inplace)
        )
        (block2): BasicBlock3x3(
          (conv1): Conv2d (64, 32, kernel_size=(3, 3), stride=(1, 1), padding=(1, 1), bias=False)
          (bn1): BatchNorm2d(32, eps=1e-05, momentum=0.1, affine=True)
          (relu): ReLU(inplace)
        )
        (block3): BasicBlock3x3(
          (conv1): Conv2d (32, 16, kernel_size=(3, 3), stride=(1, 1), padding=(1, 1), bias=False)
          (bn1): BatchNorm2d(16, eps=1e-05, momentum=0.1, affine=True)
          (relu): ReLU(inplace)
        )
        (block4): BasicBlock3x3(
          (conv1): Conv2d (16, 16, kernel_size=(3, 3), stride=(1, 1), padding=(1, 1), bias=False)
          (bn1): BatchNorm2d(16, eps=1e-05, momentum=0.1, affine=True)
          (relu): ReLU(inplace)
        )
        (downsample): Sequential(
          (0): Conv2d (64, 128, kernel_size=(1, 1), stride=(1, 1), bias=False)
          (1): BatchNorm2d(128, eps=1e-05, momentum=0.1, affine=True)
          (2): ReLU(inplace)
          (3): MaxPool2d(kernel_size=(3, 3), stride=(2, 2), padding=(1, 1), dilation=(1, 1))
        )
      )
      (1): Bottleneck(
        (block1): BasicBlock1x1(
          (conv1): Conv2d (128, 64, kernel_size=(1, 1), stride=(1, 1), bias=False)
          (bn1): BatchNorm2d(64, eps=1e-05, momentum=0.1, affine=True)
          (relu): ReLU(inplace)
        )
        (block2): BasicBlock3x3(
          (conv1): Conv2d (64, 32, kernel_size=(3, 3), stride=(1, 1), padding=(1, 1), bias=False)
          (bn1): BatchNorm2d(32, eps=1e-05, momentum=0.1, affine=True)
          (relu): ReLU(inplace)
        )
        (block3): BasicBlock3x3(
          (conv1): Conv2d (32, 16, kernel_size=(3, 3), stride=(1, 1), padding=(1, 1), bias=False)
          (bn1): BatchNorm2d(16, eps=1e-05, momentum=0.1, affine=True)
          (relu): ReLU(inplace)
        )
        (block4): BasicBlock3x3(
          (conv1): Conv2d (16, 16, kernel_size=(3, 3), stride=(1, 1), padding=(1, 1), bias=False)
          (bn1): BatchNorm2d(16, eps=1e-05, momentum=0.1, affine=True)
          (relu): ReLU(inplace)
        )
      )
      (2): Bottleneck(
        (block1): BasicBlock1x1(
          (conv1): Conv2d (128, 64, kernel_size=(1, 1), stride=(1, 1), bias=False)
          (bn1): BatchNorm2d(64, eps=1e-05, momentum=0.1, affine=True)
          (relu): ReLU(inplace)
        )
        (block2): BasicBlock3x3(
          (conv1): Conv2d (64, 32, kernel_size=(3, 3), stride=(1, 1), padding=(1, 1), bias=False)
          (bn1): BatchNorm2d(32, eps=1e-05, momentum=0.1, affine=True)
          (relu): ReLU(inplace)
        )
        (block3): BasicBlock3x3(
          (conv1): Conv2d (32, 16, kernel_size=(3, 3), stride=(1, 1), padding=(1, 1), bias=False)
          (bn1): BatchNorm2d(16, eps=1e-05, momentum=0.1, affine=True)
          (relu): ReLU(inplace)
        )
        (block4): BasicBlock3x3(
          (conv1): Conv2d (16, 16, kernel_size=(3, 3), stride=(1, 1), padding=(1, 1), bias=False)
          (bn1): BatchNorm2d(16, eps=1e-05, momentum=0.1, affine=True)
          (relu): ReLU(inplace)
        )
      )
    )
    (layer3): Sequential(
      (0): Bottleneck(
        (block1): BasicBlock1x1(
          (conv1): Conv2d (256, 128, kernel_size=(1, 1), stride=(1, 1), bias=False)
          (bn1): BatchNorm2d(128, eps=1e-05, momentum=0.1, affine=True)
          (relu): ReLU(inplace)
        )
        (block2): BasicBlock3x3(
          (conv1): Conv2d (128, 64, kernel_size=(3, 3), stride=(1, 1), padding=(1, 1), bias=False)
          (bn1): BatchNorm2d(64, eps=1e-05, momentum=0.1, affine=True)
          (relu): ReLU(inplace)
        )
        (block3): BasicBlock3x3(
          (conv1): Conv2d (64, 32, kernel_size=(3, 3), stride=(1, 1), padding=(1, 1), bias=False)
          (bn1): BatchNorm2d(32, eps=1e-05, momentum=0.1, affine=True)
          (relu): ReLU(inplace)
        )
        (block4): BasicBlock3x3(
          (conv1): Conv2d (32, 32, kernel_size=(3, 3), stride=(1, 1), padding=(1, 1), bias=False)
          (bn1): BatchNorm2d(32, eps=1e-05, momentum=0.1, affine=True)
          (relu): ReLU(inplace)
        )
        (downsample): Sequential(
          (0): Conv2d (128, 256, kernel_size=(1, 1), stride=(1, 1), bias=False)
          (1): BatchNorm2d(256, eps=1e-05, momentum=0.1, affine=True)
          (2): ReLU(inplace)
          (3): MaxPool2d(kernel_size=(3, 3), stride=(2, 2), padding=(1, 1), dilation=(1, 1))
        )
      )
      (1): Bottleneck(
        (block1): BasicBlock1x1(
          (conv1): Conv2d (256, 128, kernel_size=(1, 1), stride=(1, 1), bias=False)
          (bn1): BatchNorm2d(128, eps=1e-05, momentum=0.1, affine=True)
          (relu): ReLU(inplace)
        )
        (block2): BasicBlock3x3(
          (conv1): Conv2d (128, 64, kernel_size=(3, 3), stride=(1, 1), padding=(1, 1), bias=False)
          (bn1): BatchNorm2d(64, eps=1e-05, momentum=0.1, affine=True)
          (relu): ReLU(inplace)
        )
        (block3): BasicBlock3x3(
          (conv1): Conv2d (64, 32, kernel_size=(3, 3), stride=(1, 1), padding=(1, 1), bias=False)
          (bn1): BatchNorm2d(32, eps=1e-05, momentum=0.1, affine=True)
          (relu): ReLU(inplace)
        )
        (block4): BasicBlock3x3(
          (conv1): Conv2d (32, 32, kernel_size=(3, 3), stride=(1, 1), padding=(1, 1), bias=False)
          (bn1): BatchNorm2d(32, eps=1e-05, momentum=0.1, affine=True)
          (relu): ReLU(inplace)
        )
      )
      (2): Bottleneck(
        (block1): BasicBlock1x1(
          (conv1): Conv2d (256, 128, kernel_size=(1, 1), stride=(1, 1), bias=False)
          (bn1): BatchNorm2d(128, eps=1e-05, momentum=0.1, affine=True)
          (relu): ReLU(inplace)
        )
        (block2): BasicBlock3x3(
          (conv1): Conv2d (128, 64, kernel_size=(3, 3), stride=(1, 1), padding=(1, 1), bias=False)
          (bn1): BatchNorm2d(64, eps=1e-05, momentum=0.1, affine=True)
          (relu): ReLU(inplace)
        )
        (block3): BasicBlock3x3(
          (conv1): Conv2d (64, 32, kernel_size=(3, 3), stride=(1, 1), padding=(1, 1), bias=False)
          (bn1): BatchNorm2d(32, eps=1e-05, momentum=0.1, affine=True)
          (relu): ReLU(inplace)
        )
        (block4): BasicBlock3x3(
          (conv1): Conv2d (32, 32, kernel_size=(3, 3), stride=(1, 1), padding=(1, 1), bias=False)
          (bn1): BatchNorm2d(32, eps=1e-05, momentum=0.1, affine=True)
          (relu): ReLU(inplace)
        )
      )
      (3): Bottleneck(
        (block1): BasicBlock1x1(
          (conv1): Conv2d (256, 128, kernel_size=(1, 1), stride=(1, 1), bias=False)
          (bn1): BatchNorm2d(128, eps=1e-05, momentum=0.1, affine=True)
          (relu): ReLU(inplace)
        )
        (block2): BasicBlock3x3(
          (conv1): Conv2d (128, 64, kernel_size=(3, 3), stride=(1, 1), padding=(1, 1), bias=False)
          (bn1): BatchNorm2d(64, eps=1e-05, momentum=0.1, affine=True)
          (relu): ReLU(inplace)
        )
        (block3): BasicBlock3x3(
          (conv1): Conv2d (64, 32, kernel_size=(3, 3), stride=(1, 1), padding=(1, 1), bias=False)
          (bn1): BatchNorm2d(32, eps=1e-05, momentum=0.1, affine=True)
          (relu): ReLU(inplace)
        )
        (block4): BasicBlock3x3(
          (conv1): Conv2d (32, 32, kernel_size=(3, 3), stride=(1, 1), padding=(1, 1), bias=False)
          (bn1): BatchNorm2d(32, eps=1e-05, momentum=0.1, affine=True)
          (relu): ReLU(inplace)
        )
      )
    )
  )
  (relu): ReLU(inplace)
  (upsample5): ConvTranspose2d (256, 256, kernel_size=(4, 4), stride=(2, 2), padding=(1, 1))
  (upsample4): ConvTranspose2d (256, 256, kernel_size=(4, 4), stride=(2, 2), padding=(1, 1))
  (bn_s5): BatchNorm2d(256, eps=1e-05, momentum=0.1, affine=True)
  (bn_s4): BatchNorm2d(256, eps=1e-05, momentum=0.1, affine=True)
  (predict3): Conv2d (256, 13, kernel_size=(1, 1), stride=(1, 1))
)
make module dist
SB(
  (backbone): Dnet(
    (conv1): Conv2d (3, 32, kernel_size=(5, 5), stride=(2, 2), padding=(2, 2), bias=False)
    (bn1): BatchNorm2d(32, eps=1e-05, momentum=0.1, affine=True)
    (relu): ReLU(inplace)
    (maxpool): MaxPool2d(kernel_size=(3, 3), stride=(2, 2), padding=(1, 1), dilation=(1, 1))
    (avgpool): AvgPool2d(kernel_size=7, stride=1, padding=0, ceil_mode=False, count_include_pad=True)
    (layer1): Sequential(
      (0): Bottleneck(
        (block1): BasicBlock1x1(
          (conv1): Conv2d (64, 32, kernel_size=(1, 1), stride=(1, 1), bias=False)
          (bn1): BatchNorm2d(32, eps=1e-05, momentum=0.1, affine=True)
          (relu): ReLU(inplace)
        )
        (block2): BasicBlock3x3(
          (conv1): Conv2d (32, 16, kernel_size=(3, 3), stride=(1, 1), padding=(1, 1), bias=False)
          (bn1): BatchNorm2d(16, eps=1e-05, momentum=0.1, affine=True)
          (relu): ReLU(inplace)
        )
        (block3): BasicBlock3x3(
          (conv1): Conv2d (16, 8, kernel_size=(3, 3), stride=(1, 1), padding=(1, 1), bias=False)
          (bn1): BatchNorm2d(8, eps=1e-05, momentum=0.1, affine=True)
          (relu): ReLU(inplace)
        )
        (block4): BasicBlock3x3(
          (conv1): Conv2d (8, 8, kernel_size=(3, 3), stride=(1, 1), padding=(1, 1), bias=False)
          (bn1): BatchNorm2d(8, eps=1e-05, momentum=0.1, affine=True)
          (relu): ReLU(inplace)
        )
        (downsample): Sequential(
          (0): Conv2d (32, 64, kernel_size=(1, 1), stride=(1, 1), bias=False)
          (1): BatchNorm2d(64, eps=1e-05, momentum=0.1, affine=True)
          (2): ReLU(inplace)
          (3): MaxPool2d(kernel_size=(3, 3), stride=(2, 2), padding=(1, 1), dilation=(1, 1))
        )
      )
      (1): Bottleneck(
        (block1): BasicBlock1x1(
          (conv1): Conv2d (64, 32, kernel_size=(1, 1), stride=(1, 1), bias=False)
          (bn1): BatchNorm2d(32, eps=1e-05, momentum=0.1, affine=True)
          (relu): ReLU(inplace)
        )
        (block2): BasicBlock3x3(
          (conv1): Conv2d (32, 16, kernel_size=(3, 3), stride=(1, 1), padding=(1, 1), bias=False)
          (bn1): BatchNorm2d(16, eps=1e-05, momentum=0.1, affine=True)
          (relu): ReLU(inplace)
        )
        (block3): BasicBlock3x3(
          (conv1): Conv2d (16, 8, kernel_size=(3, 3), stride=(1, 1), padding=(1, 1), bias=False)
          (bn1): BatchNorm2d(8, eps=1e-05, momentum=0.1, affine=True)
          (relu): ReLU(inplace)
        )
        (block4): BasicBlock3x3(
          (conv1): Conv2d (8, 8, kernel_size=(3, 3), stride=(1, 1), padding=(1, 1), bias=False)
          (bn1): BatchNorm2d(8, eps=1e-05, momentum=0.1, affine=True)
          (relu): ReLU(inplace)
        )
      )
    )
    (layer2): Sequential(
      (0): Bottleneck(
        (block1): BasicBlock1x1(
          (conv1): Conv2d (128, 64, kernel_size=(1, 1), stride=(1, 1), bias=False)
          (bn1): BatchNorm2d(64, eps=1e-05, momentum=0.1, affine=True)
          (relu): ReLU(inplace)
        )
        (block2): BasicBlock3x3(
          (conv1): Conv2d (64, 32, kernel_size=(3, 3), stride=(1, 1), padding=(1, 1), bias=False)
          (bn1): BatchNorm2d(32, eps=1e-05, momentum=0.1, affine=True)
          (relu): ReLU(inplace)
        )
        (block3): BasicBlock3x3(
          (conv1): Conv2d (32, 16, kernel_size=(3, 3), stride=(1, 1), padding=(1, 1), bias=False)
          (bn1): BatchNorm2d(16, eps=1e-05, momentum=0.1, affine=True)
          (relu): ReLU(inplace)
        )
        (block4): BasicBlock3x3(
          (conv1): Conv2d (16, 16, kernel_size=(3, 3), stride=(1, 1), padding=(1, 1), bias=False)
          (bn1): BatchNorm2d(16, eps=1e-05, momentum=0.1, affine=True)
          (relu): ReLU(inplace)
        )
        (downsample): Sequential(
          (0): Conv2d (64, 128, kernel_size=(1, 1), stride=(1, 1), bias=False)
          (1): BatchNorm2d(128, eps=1e-05, momentum=0.1, affine=True)
          (2): ReLU(inplace)
          (3): MaxPool2d(kernel_size=(3, 3), stride=(2, 2), padding=(1, 1), dilation=(1, 1))
        )
      )
      (1): Bottleneck(
        (block1): BasicBlock1x1(
          (conv1): Conv2d (128, 64, kernel_size=(1, 1), stride=(1, 1), bias=False)
          (bn1): BatchNorm2d(64, eps=1e-05, momentum=0.1, affine=True)
          (relu): ReLU(inplace)
        )
        (block2): BasicBlock3x3(
          (conv1): Conv2d (64, 32, kernel_size=(3, 3), stride=(1, 1), padding=(1, 1), bias=False)
          (bn1): BatchNorm2d(32, eps=1e-05, momentum=0.1, affine=True)
          (relu): ReLU(inplace)
        )
        (block3): BasicBlock3x3(
          (conv1): Conv2d (32, 16, kernel_size=(3, 3), stride=(1, 1), padding=(1, 1), bias=False)
          (bn1): BatchNorm2d(16, eps=1e-05, momentum=0.1, affine=True)
          (relu): ReLU(inplace)
        )
        (block4): BasicBlock3x3(
          (conv1): Conv2d (16, 16, kernel_size=(3, 3), stride=(1, 1), padding=(1, 1), bias=False)
          (bn1): BatchNorm2d(16, eps=1e-05, momentum=0.1, affine=True)
          (relu): ReLU(inplace)
        )
      )
      (2): Bottleneck(
        (block1): BasicBlock1x1(
          (conv1): Conv2d (128, 64, kernel_size=(1, 1), stride=(1, 1), bias=False)
          (bn1): BatchNorm2d(64, eps=1e-05, momentum=0.1, affine=True)
          (relu): ReLU(inplace)
        )
        (block2): BasicBlock3x3(
          (conv1): Conv2d (64, 32, kernel_size=(3, 3), stride=(1, 1), padding=(1, 1), bias=False)
          (bn1): BatchNorm2d(32, eps=1e-05, momentum=0.1, affine=True)
          (relu): ReLU(inplace)
        )
        (block3): BasicBlock3x3(
          (conv1): Conv2d (32, 16, kernel_size=(3, 3), stride=(1, 1), padding=(1, 1), bias=False)
          (bn1): BatchNorm2d(16, eps=1e-05, momentum=0.1, affine=True)
          (relu): ReLU(inplace)
        )
        (block4): BasicBlock3x3(
          (conv1): Conv2d (16, 16, kernel_size=(3, 3), stride=(1, 1), padding=(1, 1), bias=False)
          (bn1): BatchNorm2d(16, eps=1e-05, momentum=0.1, affine=True)
          (relu): ReLU(inplace)
        )
      )
    )
    (layer3): Sequential(
      (0): Bottleneck(
        (block1): BasicBlock1x1(
          (conv1): Conv2d (256, 128, kernel_size=(1, 1), stride=(1, 1), bias=False)
          (bn1): BatchNorm2d(128, eps=1e-05, momentum=0.1, affine=True)
          (relu): ReLU(inplace)
        )
        (block2): BasicBlock3x3(
          (conv1): Conv2d (128, 64, kernel_size=(3, 3), stride=(1, 1), padding=(1, 1), bias=False)
          (bn1): BatchNorm2d(64, eps=1e-05, momentum=0.1, affine=True)
          (relu): ReLU(inplace)
        )
        (block3): BasicBlock3x3(
          (conv1): Conv2d (64, 32, kernel_size=(3, 3), stride=(1, 1), padding=(1, 1), bias=False)
          (bn1): BatchNorm2d(32, eps=1e-05, momentum=0.1, affine=True)
          (relu): ReLU(inplace)
        )
        (block4): BasicBlock3x3(
          (conv1): Conv2d (32, 32, kernel_size=(3, 3), stride=(1, 1), padding=(1, 1), bias=False)
          (bn1): BatchNorm2d(32, eps=1e-05, momentum=0.1, affine=True)
          (relu): ReLU(inplace)
        )
        (downsample): Sequential(
          (0): Conv2d (128, 256, kernel_size=(1, 1), stride=(1, 1), bias=False)
          (1): BatchNorm2d(256, eps=1e-05, momentum=0.1, affine=True)
          (2): ReLU(inplace)
          (3): MaxPool2d(kernel_size=(3, 3), stride=(2, 2), padding=(1, 1), dilation=(1, 1))
        )
      )
      (1): Bottleneck(
        (block1): BasicBlock1x1(
          (conv1): Conv2d (256, 128, kernel_size=(1, 1), stride=(1, 1), bias=False)
          (bn1): BatchNorm2d(128, eps=1e-05, momentum=0.1, affine=True)
          (relu): ReLU(inplace)
        )
        (block2): BasicBlock3x3(
          (conv1): Conv2d (128, 64, kernel_size=(3, 3), stride=(1, 1), padding=(1, 1), bias=False)
          (bn1): BatchNorm2d(64, eps=1e-05, momentum=0.1, affine=True)
          (relu): ReLU(inplace)
        )
        (block3): BasicBlock3x3(
          (conv1): Conv2d (64, 32, kernel_size=(3, 3), stride=(1, 1), padding=(1, 1), bias=False)
          (bn1): BatchNorm2d(32, eps=1e-05, momentum=0.1, affine=True)
          (relu): ReLU(inplace)
        )
        (block4): BasicBlock3x3(
          (conv1): Conv2d (32, 32, kernel_size=(3, 3), stride=(1, 1), padding=(1, 1), bias=False)
          (bn1): BatchNorm2d(32, eps=1e-05, momentum=0.1, affine=True)
          (relu): ReLU(inplace)
        )
      )
      (2): Bottleneck(
        (block1): BasicBlock1x1(
          (conv1): Conv2d (256, 128, kernel_size=(1, 1), stride=(1, 1), bias=False)
          (bn1): BatchNorm2d(128, eps=1e-05, momentum=0.1, affine=True)
          (relu): ReLU(inplace)
        )
        (block2): BasicBlock3x3(
          (conv1): Conv2d (128, 64, kernel_size=(3, 3), stride=(1, 1), padding=(1, 1), bias=False)
          (bn1): BatchNorm2d(64, eps=1e-05, momentum=0.1, affine=True)
          (relu): ReLU(inplace)
        )
        (block3): BasicBlock3x3(
          (conv1): Conv2d (64, 32, kernel_size=(3, 3), stride=(1, 1), padding=(1, 1), bias=False)
          (bn1): BatchNorm2d(32, eps=1e-05, momentum=0.1, affine=True)
          (relu): ReLU(inplace)
        )
        (block4): BasicBlock3x3(
          (conv1): Conv2d (32, 32, kernel_size=(3, 3), stride=(1, 1), padding=(1, 1), bias=False)
          (bn1): BatchNorm2d(32, eps=1e-05, momentum=0.1, affine=True)
          (relu): ReLU(inplace)
        )
      )
      (3): Bottleneck(
        (block1): BasicBlock1x1(
          (conv1): Conv2d (256, 128, kernel_size=(1, 1), stride=(1, 1), bias=False)
          (bn1): BatchNorm2d(128, eps=1e-05, momentum=0.1, affine=True)
          (relu): ReLU(inplace)
        )
        (block2): BasicBlock3x3(
          (conv1): Conv2d (128, 64, kernel_size=(3, 3), stride=(1, 1), padding=(1, 1), bias=False)
          (bn1): BatchNorm2d(64, eps=1e-05, momentum=0.1, affine=True)
          (relu): ReLU(inplace)
        )
        (block3): BasicBlock3x3(
          (conv1): Conv2d (64, 32, kernel_size=(3, 3), stride=(1, 1), padding=(1, 1), bias=False)
          (bn1): BatchNorm2d(32, eps=1e-05, momentum=0.1, affine=True)
          (relu): ReLU(inplace)
        )
        (block4): BasicBlock3x3(
          (conv1): Conv2d (32, 32, kernel_size=(3, 3), stride=(1, 1), padding=(1, 1), bias=False)
          (bn1): BatchNorm2d(32, eps=1e-05, momentum=0.1, affine=True)
          (relu): ReLU(inplace)
        )
      )
    )
  )
  (relu): ReLU(inplace)
  (upsample5): ConvTranspose2d (256, 256, kernel_size=(4, 4), stride=(2, 2), padding=(1, 1))
  (upsample4): ConvTranspose2d (256, 256, kernel_size=(4, 4), stride=(2, 2), padding=(1, 1))
  (bn_s5): BatchNorm2d(256, eps=1e-05, momentum=0.1, affine=True)
  (bn_s4): BatchNorm2d(256, eps=1e-05, momentum=0.1, affine=True)
  (predict3): Conv2d (256, 13, kernel_size=(1, 1), stride=(1, 1))
)
make module dist
SB(
  (backbone): Dnet(
    (conv1): Conv2d (3, 32, kernel_size=(5, 5), stride=(2, 2), padding=(2, 2), bias=False)
    (bn1): BatchNorm2d(32, eps=1e-05, momentum=0.1, affine=True)
    (relu): ReLU(inplace)
    (maxpool): MaxPool2d(kernel_size=(3, 3), stride=(2, 2), padding=(1, 1), dilation=(1, 1))
    (avgpool): AvgPool2d(kernel_size=7, stride=1, padding=0, ceil_mode=False, count_include_pad=True)
    (layer1): Sequential(
      (0): Bottleneck(
        (block1): BasicBlock1x1(
          (conv1): Conv2d (64, 32, kernel_size=(1, 1), stride=(1, 1), bias=False)
          (bn1): BatchNorm2d(32, eps=1e-05, momentum=0.1, affine=True)
          (relu): ReLU(inplace)
        )
        (block2): BasicBlock3x3(
          (conv1): Conv2d (32, 16, kernel_size=(3, 3), stride=(1, 1), padding=(1, 1), bias=False)
          (bn1): BatchNorm2d(16, eps=1e-05, momentum=0.1, affine=True)
          (relu): ReLU(inplace)
        )
        (block3): BasicBlock3x3(
          (conv1): Conv2d (16, 8, kernel_size=(3, 3), stride=(1, 1), padding=(1, 1), bias=False)
          (bn1): BatchNorm2d(8, eps=1e-05, momentum=0.1, affine=True)
          (relu): ReLU(inplace)
        )
        (block4): BasicBlock3x3(
          (conv1): Conv2d (8, 8, kernel_size=(3, 3), stride=(1, 1), padding=(1, 1), bias=False)
          (bn1): BatchNorm2d(8, eps=1e-05, momentum=0.1, affine=True)
          (relu): ReLU(inplace)
        )
        (downsample): Sequential(
          (0): Conv2d (32, 64, kernel_size=(1, 1), stride=(1, 1), bias=False)
          (1): BatchNorm2d(64, eps=1e-05, momentum=0.1, affine=True)
          (2): ReLU(inplace)
          (3): MaxPool2d(kernel_size=(3, 3), stride=(2, 2), padding=(1, 1), dilation=(1, 1))
        )
      )
      (1): Bottleneck(
        (block1): BasicBlock1x1(
          (conv1): Conv2d (64, 32, kernel_size=(1, 1), stride=(1, 1), bias=False)
          (bn1): BatchNorm2d(32, eps=1e-05, momentum=0.1, affine=True)
          (relu): ReLU(inplace)
        )
        (block2): BasicBlock3x3(
          (conv1): Conv2d (32, 16, kernel_size=(3, 3), stride=(1, 1), padding=(1, 1), bias=False)
          (bn1): BatchNorm2d(16, eps=1e-05, momentum=0.1, affine=True)
          (relu): ReLU(inplace)
        )
        (block3): BasicBlock3x3(
          (conv1): Conv2d (16, 8, kernel_size=(3, 3), stride=(1, 1), padding=(1, 1), bias=False)
          (bn1): BatchNorm2d(8, eps=1e-05, momentum=0.1, affine=True)
          (relu): ReLU(inplace)
        )
        (block4): BasicBlock3x3(
          (conv1): Conv2d (8, 8, kernel_size=(3, 3), stride=(1, 1), padding=(1, 1), bias=False)
          (bn1): BatchNorm2d(8, eps=1e-05, momentum=0.1, affine=True)
          (relu): ReLU(inplace)
        )
      )
    )
    (layer2): Sequential(
      (0): Bottleneck(
        (block1): BasicBlock1x1(
          (conv1): Conv2d (128, 64, kernel_size=(1, 1), stride=(1, 1), bias=False)
          (bn1): BatchNorm2d(64, eps=1e-05, momentum=0.1, affine=True)
          (relu): ReLU(inplace)
        )
        (block2): BasicBlock3x3(
          (conv1): Conv2d (64, 32, kernel_size=(3, 3), stride=(1, 1), padding=(1, 1), bias=False)
          (bn1): BatchNorm2d(32, eps=1e-05, momentum=0.1, affine=True)
          (relu): ReLU(inplace)
        )
        (block3): BasicBlock3x3(
          (conv1): Conv2d (32, 16, kernel_size=(3, 3), stride=(1, 1), padding=(1, 1), bias=False)
          (bn1): BatchNorm2d(16, eps=1e-05, momentum=0.1, affine=True)
          (relu): ReLU(inplace)
        )
        (block4): BasicBlock3x3(
          (conv1): Conv2d (16, 16, kernel_size=(3, 3), stride=(1, 1), padding=(1, 1), bias=False)
          (bn1): BatchNorm2d(16, eps=1e-05, momentum=0.1, affine=True)
          (relu): ReLU(inplace)
        )
        (downsample): Sequential(
          (0): Conv2d (64, 128, kernel_size=(1, 1), stride=(1, 1), bias=False)
          (1): BatchNorm2d(128, eps=1e-05, momentum=0.1, affine=True)
          (2): ReLU(inplace)
          (3): MaxPool2d(kernel_size=(3, 3), stride=(2, 2), padding=(1, 1), dilation=(1, 1))
        )
      )
      (1): Bottleneck(
        (block1): BasicBlock1x1(
          (conv1): Conv2d (128, 64, kernel_size=(1, 1), stride=(1, 1), bias=False)
          (bn1): BatchNorm2d(64, eps=1e-05, momentum=0.1, affine=True)
          (relu): ReLU(inplace)
        )
        (block2): BasicBlock3x3(
          (conv1): Conv2d (64, 32, kernel_size=(3, 3), stride=(1, 1), padding=(1, 1), bias=False)
          (bn1): BatchNorm2d(32, eps=1e-05, momentum=0.1, affine=True)
          (relu): ReLU(inplace)
        )
        (block3): BasicBlock3x3(
          (conv1): Conv2d (32, 16, kernel_size=(3, 3), stride=(1, 1), padding=(1, 1), bias=False)
          (bn1): BatchNorm2d(16, eps=1e-05, momentum=0.1, affine=True)
          (relu): ReLU(inplace)
        )
        (block4): BasicBlock3x3(
          (conv1): Conv2d (16, 16, kernel_size=(3, 3), stride=(1, 1), padding=(1, 1), bias=False)
          (bn1): BatchNorm2d(16, eps=1e-05, momentum=0.1, affine=True)
          (relu): ReLU(inplace)
        )
      )
      (2): Bottleneck(
        (block1): BasicBlock1x1(
          (conv1): Conv2d (128, 64, kernel_size=(1, 1), stride=(1, 1), bias=False)
          (bn1): BatchNorm2d(64, eps=1e-05, momentum=0.1, affine=True)
          (relu): ReLU(inplace)
        )
        (block2): BasicBlock3x3(
          (conv1): Conv2d (64, 32, kernel_size=(3, 3), stride=(1, 1), padding=(1, 1), bias=False)
          (bn1): BatchNorm2d(32, eps=1e-05, momentum=0.1, affine=True)
          (relu): ReLU(inplace)
        )
        (block3): BasicBlock3x3(
          (conv1): Conv2d (32, 16, kernel_size=(3, 3), stride=(1, 1), padding=(1, 1), bias=False)
          (bn1): BatchNorm2d(16, eps=1e-05, momentum=0.1, affine=True)
          (relu): ReLU(inplace)
        )
        (block4): BasicBlock3x3(
          (conv1): Conv2d (16, 16, kernel_size=(3, 3), stride=(1, 1), padding=(1, 1), bias=False)
          (bn1): BatchNorm2d(16, eps=1e-05, momentum=0.1, affine=True)
          (relu): ReLU(inplace)
        )
      )
    )
    (layer3): Sequential(
      (0): Bottleneck(
        (block1): BasicBlock1x1(
          (conv1): Conv2d (256, 128, kernel_size=(1, 1), stride=(1, 1), bias=False)
          (bn1): BatchNorm2d(128, eps=1e-05, momentum=0.1, affine=True)
          (relu): ReLU(inplace)
        )
        (block2): BasicBlock3x3(
          (conv1): Conv2d (128, 64, kernel_size=(3, 3), stride=(1, 1), padding=(1, 1), bias=False)
          (bn1): BatchNorm2d(64, eps=1e-05, momentum=0.1, affine=True)
          (relu): ReLU(inplace)
        )
        (block3): BasicBlock3x3(
          (conv1): Conv2d (64, 32, kernel_size=(3, 3), stride=(1, 1), padding=(1, 1), bias=False)
          (bn1): BatchNorm2d(32, eps=1e-05, momentum=0.1, affine=True)
          (relu): ReLU(inplace)
        )
        (block4): BasicBlock3x3(
          (conv1): Conv2d (32, 32, kernel_size=(3, 3), stride=(1, 1), padding=(1, 1), bias=False)
          (bn1): BatchNorm2d(32, eps=1e-05, momentum=0.1, affine=True)
          (relu): ReLU(inplace)
        )
        (downsample): Sequential(
          (0): Conv2d (128, 256, kernel_size=(1, 1), stride=(1, 1), bias=False)
          (1): BatchNorm2d(256, eps=1e-05, momentum=0.1, affine=True)
          (2): ReLU(inplace)
          (3): MaxPool2d(kernel_size=(3, 3), stride=(2, 2), padding=(1, 1), dilation=(1, 1))
        )
      )
      (1): Bottleneck(
        (block1): BasicBlock1x1(
          (conv1): Conv2d (256, 128, kernel_size=(1, 1), stride=(1, 1), bias=False)
          (bn1): BatchNorm2d(128, eps=1e-05, momentum=0.1, affine=True)
          (relu): ReLU(inplace)
        )
        (block2): BasicBlock3x3(
          (conv1): Conv2d (128, 64, kernel_size=(3, 3), stride=(1, 1), padding=(1, 1), bias=False)
          (bn1): BatchNorm2d(64, eps=1e-05, momentum=0.1, affine=True)
          (relu): ReLU(inplace)
        )
        (block3): BasicBlock3x3(
          (conv1): Conv2d (64, 32, kernel_size=(3, 3), stride=(1, 1), padding=(1, 1), bias=False)
          (bn1): BatchNorm2d(32, eps=1e-05, momentum=0.1, affine=True)
          (relu): ReLU(inplace)
        )
        (block4): BasicBlock3x3(
          (conv1): Conv2d (32, 32, kernel_size=(3, 3), stride=(1, 1), padding=(1, 1), bias=False)
          (bn1): BatchNorm2d(32, eps=1e-05, momentum=0.1, affine=True)
          (relu): ReLU(inplace)
        )
      )
      (2): Bottleneck(
        (block1): BasicBlock1x1(
          (conv1): Conv2d (256, 128, kernel_size=(1, 1), stride=(1, 1), bias=False)
          (bn1): BatchNorm2d(128, eps=1e-05, momentum=0.1, affine=True)
          (relu): ReLU(inplace)
        )
        (block2): BasicBlock3x3(
          (conv1): Conv2d (128, 64, kernel_size=(3, 3), stride=(1, 1), padding=(1, 1), bias=False)
          (bn1): BatchNorm2d(64, eps=1e-05, momentum=0.1, affine=True)
          (relu): ReLU(inplace)
        )
        (block3): BasicBlock3x3(
          (conv1): Conv2d (64, 32, kernel_size=(3, 3), stride=(1, 1), padding=(1, 1), bias=False)
          (bn1): BatchNorm2d(32, eps=1e-05, momentum=0.1, affine=True)
          (relu): ReLU(inplace)
        )
        (block4): BasicBlock3x3(
          (conv1): Conv2d (32, 32, kernel_size=(3, 3), stride=(1, 1), padding=(1, 1), bias=False)
          (bn1): BatchNorm2d(32, eps=1e-05, momentum=0.1, affine=True)
          (relu): ReLU(inplace)
        )
      )
      (3): Bottleneck(
        (block1): BasicBlock1x1(
          (conv1): Conv2d (256, 128, kernel_size=(1, 1), stride=(1, 1), bias=False)
          (bn1): BatchNorm2d(128, eps=1e-05, momentum=0.1, affine=True)
          (relu): ReLU(inplace)
        )
        (block2): BasicBlock3x3(
          (conv1): Conv2d (128, 64, kernel_size=(3, 3), stride=(1, 1), padding=(1, 1), bias=False)
          (bn1): BatchNorm2d(64, eps=1e-05, momentum=0.1, affine=True)
          (relu): ReLU(inplace)
        )
        (block3): BasicBlock3x3(
          (conv1): Conv2d (64, 32, kernel_size=(3, 3), stride=(1, 1), padding=(1, 1), bias=False)
          (bn1): BatchNorm2d(32, eps=1e-05, momentum=0.1, affine=True)
          (relu): ReLU(inplace)
        )
        (block4): BasicBlock3x3(
          (conv1): Conv2d (32, 32, kernel_size=(3, 3), stride=(1, 1), padding=(1, 1), bias=False)
          (bn1): BatchNorm2d(32, eps=1e-05, momentum=0.1, affine=True)
          (relu): ReLU(inplace)
        )
      )
    )
  )
  (relu): ReLU(inplace)
  (upsample5): ConvTranspose2d (256, 256, kernel_size=(4, 4), stride=(2, 2), padding=(1, 1))
  (upsample4): ConvTranspose2d (256, 256, kernel_size=(4, 4), stride=(2, 2), padding=(1, 1))
  (bn_s5): BatchNorm2d(256, eps=1e-05, momentum=0.1, affine=True)
  (bn_s4): BatchNorm2d(256, eps=1e-05, momentum=0.1, affine=True)
  (predict3): Conv2d (256, 13, kernel_size=(1, 1), stride=(1, 1))
)
make module dist
SB(
  (backbone): Dnet(
    (conv1): Conv2d (3, 32, kernel_size=(5, 5), stride=(2, 2), padding=(2, 2), bias=False)
    (bn1): BatchNorm2d(32, eps=1e-05, momentum=0.1, affine=True)
    (relu): ReLU(inplace)
    (maxpool): MaxPool2d(kernel_size=(3, 3), stride=(2, 2), padding=(1, 1), dilation=(1, 1))
    (avgpool): AvgPool2d(kernel_size=7, stride=1, padding=0, ceil_mode=False, count_include_pad=True)
    (layer1): Sequential(
      (0): Bottleneck(
        (block1): BasicBlock1x1(
          (conv1): Conv2d (64, 32, kernel_size=(1, 1), stride=(1, 1), bias=False)
          (bn1): BatchNorm2d(32, eps=1e-05, momentum=0.1, affine=True)
          (relu): ReLU(inplace)
        )
        (block2): BasicBlock3x3(
          (conv1): Conv2d (32, 16, kernel_size=(3, 3), stride=(1, 1), padding=(1, 1), bias=False)
          (bn1): BatchNorm2d(16, eps=1e-05, momentum=0.1, affine=True)
          (relu): ReLU(inplace)
        )
        (block3): BasicBlock3x3(
          (conv1): Conv2d (16, 8, kernel_size=(3, 3), stride=(1, 1), padding=(1, 1), bias=False)
          (bn1): BatchNorm2d(8, eps=1e-05, momentum=0.1, affine=True)
          (relu): ReLU(inplace)
        )
        (block4): BasicBlock3x3(
          (conv1): Conv2d (8, 8, kernel_size=(3, 3), stride=(1, 1), padding=(1, 1), bias=False)
          (bn1): BatchNorm2d(8, eps=1e-05, momentum=0.1, affine=True)
          (relu): ReLU(inplace)
        )
        (downsample): Sequential(
          (0): Conv2d (32, 64, kernel_size=(1, 1), stride=(1, 1), bias=False)
          (1): BatchNorm2d(64, eps=1e-05, momentum=0.1, affine=True)
          (2): ReLU(inplace)
          (3): MaxPool2d(kernel_size=(3, 3), stride=(2, 2), padding=(1, 1), dilation=(1, 1))
        )
      )
      (1): Bottleneck(
        (block1): BasicBlock1x1(
          (conv1): Conv2d (64, 32, kernel_size=(1, 1), stride=(1, 1), bias=False)
          (bn1): BatchNorm2d(32, eps=1e-05, momentum=0.1, affine=True)
          (relu): ReLU(inplace)
        )
        (block2): BasicBlock3x3(
          (conv1): Conv2d (32, 16, kernel_size=(3, 3), stride=(1, 1), padding=(1, 1), bias=False)
          (bn1): BatchNorm2d(16, eps=1e-05, momentum=0.1, affine=True)
          (relu): ReLU(inplace)
        )
        (block3): BasicBlock3x3(
          (conv1): Conv2d (16, 8, kernel_size=(3, 3), stride=(1, 1), padding=(1, 1), bias=False)
          (bn1): BatchNorm2d(8, eps=1e-05, momentum=0.1, affine=True)
          (relu): ReLU(inplace)
        )
        (block4): BasicBlock3x3(
          (conv1): Conv2d (8, 8, kernel_size=(3, 3), stride=(1, 1), padding=(1, 1), bias=False)
          (bn1): BatchNorm2d(8, eps=1e-05, momentum=0.1, affine=True)
          (relu): ReLU(inplace)
        )
      )
    )
    (layer2): Sequential(
      (0): Bottleneck(
        (block1): BasicBlock1x1(
          (conv1): Conv2d (128, 64, kernel_size=(1, 1), stride=(1, 1), bias=False)
          (bn1): BatchNorm2d(64, eps=1e-05, momentum=0.1, affine=True)
          (relu): ReLU(inplace)
        )
        (block2): BasicBlock3x3(
          (conv1): Conv2d (64, 32, kernel_size=(3, 3), stride=(1, 1), padding=(1, 1), bias=False)
          (bn1): BatchNorm2d(32, eps=1e-05, momentum=0.1, affine=True)
          (relu): ReLU(inplace)
        )
        (block3): BasicBlock3x3(
          (conv1): Conv2d (32, 16, kernel_size=(3, 3), stride=(1, 1), padding=(1, 1), bias=False)
          (bn1): BatchNorm2d(16, eps=1e-05, momentum=0.1, affine=True)
          (relu): ReLU(inplace)
        )
        (block4): BasicBlock3x3(
          (conv1): Conv2d (16, 16, kernel_size=(3, 3), stride=(1, 1), padding=(1, 1), bias=False)
          (bn1): BatchNorm2d(16, eps=1e-05, momentum=0.1, affine=True)
          (relu): ReLU(inplace)
        )
        (downsample): Sequential(
          (0): Conv2d (64, 128, kernel_size=(1, 1), stride=(1, 1), bias=False)
          (1): BatchNorm2d(128, eps=1e-05, momentum=0.1, affine=True)
          (2): ReLU(inplace)
          (3): MaxPool2d(kernel_size=(3, 3), stride=(2, 2), padding=(1, 1), dilation=(1, 1))
        )
      )
      (1): Bottleneck(
        (block1): BasicBlock1x1(
          (conv1): Conv2d (128, 64, kernel_size=(1, 1), stride=(1, 1), bias=False)
          (bn1): BatchNorm2d(64, eps=1e-05, momentum=0.1, affine=True)
          (relu): ReLU(inplace)
        )
        (block2): BasicBlock3x3(
          (conv1): Conv2d (64, 32, kernel_size=(3, 3), stride=(1, 1), padding=(1, 1), bias=False)
          (bn1): BatchNorm2d(32, eps=1e-05, momentum=0.1, affine=True)
          (relu): ReLU(inplace)
        )
        (block3): BasicBlock3x3(
          (conv1): Conv2d (32, 16, kernel_size=(3, 3), stride=(1, 1), padding=(1, 1), bias=False)
          (bn1): BatchNorm2d(16, eps=1e-05, momentum=0.1, affine=True)
          (relu): ReLU(inplace)
        )
        (block4): BasicBlock3x3(
          (conv1): Conv2d (16, 16, kernel_size=(3, 3), stride=(1, 1), padding=(1, 1), bias=False)
          (bn1): BatchNorm2d(16, eps=1e-05, momentum=0.1, affine=True)
          (relu): ReLU(inplace)
        )
      )
      (2): Bottleneck(
        (block1): BasicBlock1x1(
          (conv1): Conv2d (128, 64, kernel_size=(1, 1), stride=(1, 1), bias=False)
          (bn1): BatchNorm2d(64, eps=1e-05, momentum=0.1, affine=True)
          (relu): ReLU(inplace)
        )
        (block2): BasicBlock3x3(
          (conv1): Conv2d (64, 32, kernel_size=(3, 3), stride=(1, 1), padding=(1, 1), bias=False)
          (bn1): BatchNorm2d(32, eps=1e-05, momentum=0.1, affine=True)
          (relu): ReLU(inplace)
        )
        (block3): BasicBlock3x3(
          (conv1): Conv2d (32, 16, kernel_size=(3, 3), stride=(1, 1), padding=(1, 1), bias=False)
          (bn1): BatchNorm2d(16, eps=1e-05, momentum=0.1, affine=True)
          (relu): ReLU(inplace)
        )
        (block4): BasicBlock3x3(
          (conv1): Conv2d (16, 16, kernel_size=(3, 3), stride=(1, 1), padding=(1, 1), bias=False)
          (bn1): BatchNorm2d(16, eps=1e-05, momentum=0.1, affine=True)
          (relu): ReLU(inplace)
        )
      )
    )
    (layer3): Sequential(
      (0): Bottleneck(
        (block1): BasicBlock1x1(
          (conv1): Conv2d (256, 128, kernel_size=(1, 1), stride=(1, 1), bias=False)
          (bn1): BatchNorm2d(128, eps=1e-05, momentum=0.1, affine=True)
          (relu): ReLU(inplace)
        )
        (block2): BasicBlock3x3(
          (conv1): Conv2d (128, 64, kernel_size=(3, 3), stride=(1, 1), padding=(1, 1), bias=False)
          (bn1): BatchNorm2d(64, eps=1e-05, momentum=0.1, affine=True)
          (relu): ReLU(inplace)
        )
        (block3): BasicBlock3x3(
          (conv1): Conv2d (64, 32, kernel_size=(3, 3), stride=(1, 1), padding=(1, 1), bias=False)
          (bn1): BatchNorm2d(32, eps=1e-05, momentum=0.1, affine=True)
          (relu): ReLU(inplace)
        )
        (block4): BasicBlock3x3(
          (conv1): Conv2d (32, 32, kernel_size=(3, 3), stride=(1, 1), padding=(1, 1), bias=False)
          (bn1): BatchNorm2d(32, eps=1e-05, momentum=0.1, affine=True)
          (relu): ReLU(inplace)
        )
        (downsample): Sequential(
          (0): Conv2d (128, 256, kernel_size=(1, 1), stride=(1, 1), bias=False)
          (1): BatchNorm2d(256, eps=1e-05, momentum=0.1, affine=True)
          (2): ReLU(inplace)
          (3): MaxPool2d(kernel_size=(3, 3), stride=(2, 2), padding=(1, 1), dilation=(1, 1))
        )
      )
      (1): Bottleneck(
        (block1): BasicBlock1x1(
          (conv1): Conv2d (256, 128, kernel_size=(1, 1), stride=(1, 1), bias=False)
          (bn1): BatchNorm2d(128, eps=1e-05, momentum=0.1, affine=True)
          (relu): ReLU(inplace)
        )
        (block2): BasicBlock3x3(
          (conv1): Conv2d (128, 64, kernel_size=(3, 3), stride=(1, 1), padding=(1, 1), bias=False)
          (bn1): BatchNorm2d(64, eps=1e-05, momentum=0.1, affine=True)
          (relu): ReLU(inplace)
        )
        (block3): BasicBlock3x3(
          (conv1): Conv2d (64, 32, kernel_size=(3, 3), stride=(1, 1), padding=(1, 1), bias=False)
          (bn1): BatchNorm2d(32, eps=1e-05, momentum=0.1, affine=True)
          (relu): ReLU(inplace)
        )
        (block4): BasicBlock3x3(
          (conv1): Conv2d (32, 32, kernel_size=(3, 3), stride=(1, 1), padding=(1, 1), bias=False)
          (bn1): BatchNorm2d(32, eps=1e-05, momentum=0.1, affine=True)
          (relu): ReLU(inplace)
        )
      )
      (2): Bottleneck(
        (block1): BasicBlock1x1(
          (conv1): Conv2d (256, 128, kernel_size=(1, 1), stride=(1, 1), bias=False)
          (bn1): BatchNorm2d(128, eps=1e-05, momentum=0.1, affine=True)
          (relu): ReLU(inplace)
        )
        (block2): BasicBlock3x3(
          (conv1): Conv2d (128, 64, kernel_size=(3, 3), stride=(1, 1), padding=(1, 1), bias=False)
          (bn1): BatchNorm2d(64, eps=1e-05, momentum=0.1, affine=True)
          (relu): ReLU(inplace)
        )
        (block3): BasicBlock3x3(
          (conv1): Conv2d (64, 32, kernel_size=(3, 3), stride=(1, 1), padding=(1, 1), bias=False)
          (bn1): BatchNorm2d(32, eps=1e-05, momentum=0.1, affine=True)
          (relu): ReLU(inplace)
        )
        (block4): BasicBlock3x3(
          (conv1): Conv2d (32, 32, kernel_size=(3, 3), stride=(1, 1), padding=(1, 1), bias=False)
          (bn1): BatchNorm2d(32, eps=1e-05, momentum=0.1, affine=True)
          (relu): ReLU(inplace)
        )
      )
      (3): Bottleneck(
        (block1): BasicBlock1x1(
          (conv1): Conv2d (256, 128, kernel_size=(1, 1), stride=(1, 1), bias=False)
          (bn1): BatchNorm2d(128, eps=1e-05, momentum=0.1, affine=True)
          (relu): ReLU(inplace)
        )
        (block2): BasicBlock3x3(
          (conv1): Conv2d (128, 64, kernel_size=(3, 3), stride=(1, 1), padding=(1, 1), bias=False)
          (bn1): BatchNorm2d(64, eps=1e-05, momentum=0.1, affine=True)
          (relu): ReLU(inplace)
        )
        (block3): BasicBlock3x3(
          (conv1): Conv2d (64, 32, kernel_size=(3, 3), stride=(1, 1), padding=(1, 1), bias=False)
          (bn1): BatchNorm2d(32, eps=1e-05, momentum=0.1, affine=True)
          (relu): ReLU(inplace)
        )
        (block4): BasicBlock3x3(
          (conv1): Conv2d (32, 32, kernel_size=(3, 3), stride=(1, 1), padding=(1, 1), bias=False)
          (bn1): BatchNorm2d(32, eps=1e-05, momentum=0.1, affine=True)
          (relu): ReLU(inplace)
        )
      )
    )
  )
  (relu): ReLU(inplace)
  (upsample5): ConvTranspose2d (256, 256, kernel_size=(4, 4), stride=(2, 2), padding=(1, 1))
  (upsample4): ConvTranspose2d (256, 256, kernel_size=(4, 4), stride=(2, 2), padding=(1, 1))
  (bn_s5): BatchNorm2d(256, eps=1e-05, momentum=0.1, affine=True)
  (bn_s4): BatchNorm2d(256, eps=1e-05, momentum=0.1, affine=True)
  (predict3): Conv2d (256, 13, kernel_size=(1, 1), stride=(1, 1))
)
make module dist
SB(
  (backbone): Dnet(
    (conv1): Conv2d (3, 32, kernel_size=(5, 5), stride=(2, 2), padding=(2, 2), bias=False)
    (bn1): BatchNorm2d(32, eps=1e-05, momentum=0.1, affine=True)
    (relu): ReLU(inplace)
    (maxpool): MaxPool2d(kernel_size=(3, 3), stride=(2, 2), padding=(1, 1), dilation=(1, 1))
    (avgpool): AvgPool2d(kernel_size=7, stride=1, padding=0, ceil_mode=False, count_include_pad=True)
    (layer1): Sequential(
      (0): Bottleneck(
        (block1): BasicBlock1x1(
          (conv1): Conv2d (64, 32, kernel_size=(1, 1), stride=(1, 1), bias=False)
          (bn1): BatchNorm2d(32, eps=1e-05, momentum=0.1, affine=True)
          (relu): ReLU(inplace)
        )
        (block2): BasicBlock3x3(
          (conv1): Conv2d (32, 16, kernel_size=(3, 3), stride=(1, 1), padding=(1, 1), bias=False)
          (bn1): BatchNorm2d(16, eps=1e-05, momentum=0.1, affine=True)
          (relu): ReLU(inplace)
        )
        (block3): BasicBlock3x3(
          (conv1): Conv2d (16, 8, kernel_size=(3, 3), stride=(1, 1), padding=(1, 1), bias=False)
          (bn1): BatchNorm2d(8, eps=1e-05, momentum=0.1, affine=True)
          (relu): ReLU(inplace)
        )
        (block4): BasicBlock3x3(
          (conv1): Conv2d (8, 8, kernel_size=(3, 3), stride=(1, 1), padding=(1, 1), bias=False)
          (bn1): BatchNorm2d(8, eps=1e-05, momentum=0.1, affine=True)
          (relu): ReLU(inplace)
        )
        (downsample): Sequential(
          (0): Conv2d (32, 64, kernel_size=(1, 1), stride=(1, 1), bias=False)
          (1): BatchNorm2d(64, eps=1e-05, momentum=0.1, affine=True)
          (2): ReLU(inplace)
          (3): MaxPool2d(kernel_size=(3, 3), stride=(2, 2), padding=(1, 1), dilation=(1, 1))
        )
      )
      (1): Bottleneck(
        (block1): BasicBlock1x1(
          (conv1): Conv2d (64, 32, kernel_size=(1, 1), stride=(1, 1), bias=False)
          (bn1): BatchNorm2d(32, eps=1e-05, momentum=0.1, affine=True)
          (relu): ReLU(inplace)
        )
        (block2): BasicBlock3x3(
          (conv1): Conv2d (32, 16, kernel_size=(3, 3), stride=(1, 1), padding=(1, 1), bias=False)
          (bn1): BatchNorm2d(16, eps=1e-05, momentum=0.1, affine=True)
          (relu): ReLU(inplace)
        )
        (block3): BasicBlock3x3(
          (conv1): Conv2d (16, 8, kernel_size=(3, 3), stride=(1, 1), padding=(1, 1), bias=False)
          (bn1): BatchNorm2d(8, eps=1e-05, momentum=0.1, affine=True)
          (relu): ReLU(inplace)
        )
        (block4): BasicBlock3x3(
          (conv1): Conv2d (8, 8, kernel_size=(3, 3), stride=(1, 1), padding=(1, 1), bias=False)
          (bn1): BatchNorm2d(8, eps=1e-05, momentum=0.1, affine=True)
          (relu): ReLU(inplace)
        )
      )
    )
    (layer2): Sequential(
      (0): Bottleneck(
        (block1): BasicBlock1x1(
          (conv1): Conv2d (128, 64, kernel_size=(1, 1), stride=(1, 1), bias=False)
          (bn1): BatchNorm2d(64, eps=1e-05, momentum=0.1, affine=True)
          (relu): ReLU(inplace)
        )
        (block2): BasicBlock3x3(
          (conv1): Conv2d (64, 32, kernel_size=(3, 3), stride=(1, 1), padding=(1, 1), bias=False)
          (bn1): BatchNorm2d(32, eps=1e-05, momentum=0.1, affine=True)
          (relu): ReLU(inplace)
        )
        (block3): BasicBlock3x3(
          (conv1): Conv2d (32, 16, kernel_size=(3, 3), stride=(1, 1), padding=(1, 1), bias=False)
          (bn1): BatchNorm2d(16, eps=1e-05, momentum=0.1, affine=True)
          (relu): ReLU(inplace)
        )
        (block4): BasicBlock3x3(
          (conv1): Conv2d (16, 16, kernel_size=(3, 3), stride=(1, 1), padding=(1, 1), bias=False)
          (bn1): BatchNorm2d(16, eps=1e-05, momentum=0.1, affine=True)
          (relu): ReLU(inplace)
        )
        (downsample): Sequential(
          (0): Conv2d (64, 128, kernel_size=(1, 1), stride=(1, 1), bias=False)
          (1): BatchNorm2d(128, eps=1e-05, momentum=0.1, affine=True)
          (2): ReLU(inplace)
          (3): MaxPool2d(kernel_size=(3, 3), stride=(2, 2), padding=(1, 1), dilation=(1, 1))
        )
      )
      (1): Bottleneck(
        (block1): BasicBlock1x1(
          (conv1): Conv2d (128, 64, kernel_size=(1, 1), stride=(1, 1), bias=False)
          (bn1): BatchNorm2d(64, eps=1e-05, momentum=0.1, affine=True)
          (relu): ReLU(inplace)
        )
        (block2): BasicBlock3x3(
          (conv1): Conv2d (64, 32, kernel_size=(3, 3), stride=(1, 1), padding=(1, 1), bias=False)
          (bn1): BatchNorm2d(32, eps=1e-05, momentum=0.1, affine=True)
          (relu): ReLU(inplace)
        )
        (block3): BasicBlock3x3(
          (conv1): Conv2d (32, 16, kernel_size=(3, 3), stride=(1, 1), padding=(1, 1), bias=False)
          (bn1): BatchNorm2d(16, eps=1e-05, momentum=0.1, affine=True)
          (relu): ReLU(inplace)
        )
        (block4): BasicBlock3x3(
          (conv1): Conv2d (16, 16, kernel_size=(3, 3), stride=(1, 1), padding=(1, 1), bias=False)
          (bn1): BatchNorm2d(16, eps=1e-05, momentum=0.1, affine=True)
          (relu): ReLU(inplace)
        )
      )
      (2): Bottleneck(
        (block1): BasicBlock1x1(
          (conv1): Conv2d (128, 64, kernel_size=(1, 1), stride=(1, 1), bias=False)
          (bn1): BatchNorm2d(64, eps=1e-05, momentum=0.1, affine=True)
          (relu): ReLU(inplace)
        )
        (block2): BasicBlock3x3(
          (conv1): Conv2d (64, 32, kernel_size=(3, 3), stride=(1, 1), padding=(1, 1), bias=False)
          (bn1): BatchNorm2d(32, eps=1e-05, momentum=0.1, affine=True)
          (relu): ReLU(inplace)
        )
        (block3): BasicBlock3x3(
          (conv1): Conv2d (32, 16, kernel_size=(3, 3), stride=(1, 1), padding=(1, 1), bias=False)
          (bn1): BatchNorm2d(16, eps=1e-05, momentum=0.1, affine=True)
          (relu): ReLU(inplace)
        )
        (block4): BasicBlock3x3(
          (conv1): Conv2d (16, 16, kernel_size=(3, 3), stride=(1, 1), padding=(1, 1), bias=False)
          (bn1): BatchNorm2d(16, eps=1e-05, momentum=0.1, affine=True)
          (relu): ReLU(inplace)
        )
      )
    )
    (layer3): Sequential(
      (0): Bottleneck(
        (block1): BasicBlock1x1(
          (conv1): Conv2d (256, 128, kernel_size=(1, 1), stride=(1, 1), bias=False)
          (bn1): BatchNorm2d(128, eps=1e-05, momentum=0.1, affine=True)
          (relu): ReLU(inplace)
        )
        (block2): BasicBlock3x3(
          (conv1): Conv2d (128, 64, kernel_size=(3, 3), stride=(1, 1), padding=(1, 1), bias=False)
          (bn1): BatchNorm2d(64, eps=1e-05, momentum=0.1, affine=True)
          (relu): ReLU(inplace)
        )
        (block3): BasicBlock3x3(
          (conv1): Conv2d (64, 32, kernel_size=(3, 3), stride=(1, 1), padding=(1, 1), bias=False)
          (bn1): BatchNorm2d(32, eps=1e-05, momentum=0.1, affine=True)
          (relu): ReLU(inplace)
        )
        (block4): BasicBlock3x3(
          (conv1): Conv2d (32, 32, kernel_size=(3, 3), stride=(1, 1), padding=(1, 1), bias=False)
          (bn1): BatchNorm2d(32, eps=1e-05, momentum=0.1, affine=True)
          (relu): ReLU(inplace)
        )
        (downsample): Sequential(
          (0): Conv2d (128, 256, kernel_size=(1, 1), stride=(1, 1), bias=False)
          (1): BatchNorm2d(256, eps=1e-05, momentum=0.1, affine=True)
          (2): ReLU(inplace)
          (3): MaxPool2d(kernel_size=(3, 3), stride=(2, 2), padding=(1, 1), dilation=(1, 1))
        )
      )
      (1): Bottleneck(
        (block1): BasicBlock1x1(
          (conv1): Conv2d (256, 128, kernel_size=(1, 1), stride=(1, 1), bias=False)
          (bn1): BatchNorm2d(128, eps=1e-05, momentum=0.1, affine=True)
          (relu): ReLU(inplace)
        )
        (block2): BasicBlock3x3(
          (conv1): Conv2d (128, 64, kernel_size=(3, 3), stride=(1, 1), padding=(1, 1), bias=False)
          (bn1): BatchNorm2d(64, eps=1e-05, momentum=0.1, affine=True)
          (relu): ReLU(inplace)
        )
        (block3): BasicBlock3x3(
          (conv1): Conv2d (64, 32, kernel_size=(3, 3), stride=(1, 1), padding=(1, 1), bias=False)
          (bn1): BatchNorm2d(32, eps=1e-05, momentum=0.1, affine=True)
          (relu): ReLU(inplace)
        )
        (block4): BasicBlock3x3(
          (conv1): Conv2d (32, 32, kernel_size=(3, 3), stride=(1, 1), padding=(1, 1), bias=False)
          (bn1): BatchNorm2d(32, eps=1e-05, momentum=0.1, affine=True)
          (relu): ReLU(inplace)
        )
      )
      (2): Bottleneck(
        (block1): BasicBlock1x1(
          (conv1): Conv2d (256, 128, kernel_size=(1, 1), stride=(1, 1), bias=False)
          (bn1): BatchNorm2d(128, eps=1e-05, momentum=0.1, affine=True)
          (relu): ReLU(inplace)
        )
        (block2): BasicBlock3x3(
          (conv1): Conv2d (128, 64, kernel_size=(3, 3), stride=(1, 1), padding=(1, 1), bias=False)
          (bn1): BatchNorm2d(64, eps=1e-05, momentum=0.1, affine=True)
          (relu): ReLU(inplace)
        )
        (block3): BasicBlock3x3(
          (conv1): Conv2d (64, 32, kernel_size=(3, 3), stride=(1, 1), padding=(1, 1), bias=False)
          (bn1): BatchNorm2d(32, eps=1e-05, momentum=0.1, affine=True)
          (relu): ReLU(inplace)
        )
        (block4): BasicBlock3x3(
          (conv1): Conv2d (32, 32, kernel_size=(3, 3), stride=(1, 1), padding=(1, 1), bias=False)
          (bn1): BatchNorm2d(32, eps=1e-05, momentum=0.1, affine=True)
          (relu): ReLU(inplace)
        )
      )
      (3): Bottleneck(
        (block1): BasicBlock1x1(
          (conv1): Conv2d (256, 128, kernel_size=(1, 1), stride=(1, 1), bias=False)
          (bn1): BatchNorm2d(128, eps=1e-05, momentum=0.1, affine=True)
          (relu): ReLU(inplace)
        )
        (block2): BasicBlock3x3(
          (conv1): Conv2d (128, 64, kernel_size=(3, 3), stride=(1, 1), padding=(1, 1), bias=False)
          (bn1): BatchNorm2d(64, eps=1e-05, momentum=0.1, affine=True)
          (relu): ReLU(inplace)
        )
        (block3): BasicBlock3x3(
          (conv1): Conv2d (64, 32, kernel_size=(3, 3), stride=(1, 1), padding=(1, 1), bias=False)
          (bn1): BatchNorm2d(32, eps=1e-05, momentum=0.1, affine=True)
          (relu): ReLU(inplace)
        )
        (block4): BasicBlock3x3(
          (conv1): Conv2d (32, 32, kernel_size=(3, 3), stride=(1, 1), padding=(1, 1), bias=False)
          (bn1): BatchNorm2d(32, eps=1e-05, momentum=0.1, affine=True)
          (relu): ReLU(inplace)
        )
      )
    )
  )
  (relu): ReLU(inplace)
  (upsample5): ConvTranspose2d (256, 256, kernel_size=(4, 4), stride=(2, 2), padding=(1, 1))
  (upsample4): ConvTranspose2d (256, 256, kernel_size=(4, 4), stride=(2, 2), padding=(1, 1))
  (bn_s5): BatchNorm2d(256, eps=1e-05, momentum=0.1, affine=True)
  (bn_s4): BatchNorm2d(256, eps=1e-05, momentum=0.1, affine=True)
  (predict3): Conv2d (256, 13, kernel_size=(1, 1), stride=(1, 1))
)
make module dist
SB(
  (backbone): Dnet(
    (conv1): Conv2d (3, 32, kernel_size=(5, 5), stride=(2, 2), padding=(2, 2), bias=False)
    (bn1): BatchNorm2d(32, eps=1e-05, momentum=0.1, affine=True)
    (relu): ReLU(inplace)
    (maxpool): MaxPool2d(kernel_size=(3, 3), stride=(2, 2), padding=(1, 1), dilation=(1, 1))
    (avgpool): AvgPool2d(kernel_size=7, stride=1, padding=0, ceil_mode=False, count_include_pad=True)
    (layer1): Sequential(
      (0): Bottleneck(
        (block1): BasicBlock1x1(
          (conv1): Conv2d (64, 32, kernel_size=(1, 1), stride=(1, 1), bias=False)
          (bn1): BatchNorm2d(32, eps=1e-05, momentum=0.1, affine=True)
          (relu): ReLU(inplace)
        )
        (block2): BasicBlock3x3(
          (conv1): Conv2d (32, 16, kernel_size=(3, 3), stride=(1, 1), padding=(1, 1), bias=False)
          (bn1): BatchNorm2d(16, eps=1e-05, momentum=0.1, affine=True)
          (relu): ReLU(inplace)
        )
        (block3): BasicBlock3x3(
          (conv1): Conv2d (16, 8, kernel_size=(3, 3), stride=(1, 1), padding=(1, 1), bias=False)
          (bn1): BatchNorm2d(8, eps=1e-05, momentum=0.1, affine=True)
          (relu): ReLU(inplace)
        )
        (block4): BasicBlock3x3(
          (conv1): Conv2d (8, 8, kernel_size=(3, 3), stride=(1, 1), padding=(1, 1), bias=False)
          (bn1): BatchNorm2d(8, eps=1e-05, momentum=0.1, affine=True)
          (relu): ReLU(inplace)
        )
        (downsample): Sequential(
          (0): Conv2d (32, 64, kernel_size=(1, 1), stride=(1, 1), bias=False)
          (1): BatchNorm2d(64, eps=1e-05, momentum=0.1, affine=True)
          (2): ReLU(inplace)
          (3): MaxPool2d(kernel_size=(3, 3), stride=(2, 2), padding=(1, 1), dilation=(1, 1))
        )
      )
      (1): Bottleneck(
        (block1): BasicBlock1x1(
          (conv1): Conv2d (64, 32, kernel_size=(1, 1), stride=(1, 1), bias=False)
          (bn1): BatchNorm2d(32, eps=1e-05, momentum=0.1, affine=True)
          (relu): ReLU(inplace)
        )
        (block2): BasicBlock3x3(
          (conv1): Conv2d (32, 16, kernel_size=(3, 3), stride=(1, 1), padding=(1, 1), bias=False)
          (bn1): BatchNorm2d(16, eps=1e-05, momentum=0.1, affine=True)
          (relu): ReLU(inplace)
        )
        (block3): BasicBlock3x3(
          (conv1): Conv2d (16, 8, kernel_size=(3, 3), stride=(1, 1), padding=(1, 1), bias=False)
          (bn1): BatchNorm2d(8, eps=1e-05, momentum=0.1, affine=True)
          (relu): ReLU(inplace)
        )
        (block4): BasicBlock3x3(
          (conv1): Conv2d (8, 8, kernel_size=(3, 3), stride=(1, 1), padding=(1, 1), bias=False)
          (bn1): BatchNorm2d(8, eps=1e-05, momentum=0.1, affine=True)
          (relu): ReLU(inplace)
        )
      )
    )
    (layer2): Sequential(
      (0): Bottleneck(
        (block1): BasicBlock1x1(
          (conv1): Conv2d (128, 64, kernel_size=(1, 1), stride=(1, 1), bias=False)
          (bn1): BatchNorm2d(64, eps=1e-05, momentum=0.1, affine=True)
          (relu): ReLU(inplace)
        )
        (block2): BasicBlock3x3(
          (conv1): Conv2d (64, 32, kernel_size=(3, 3), stride=(1, 1), padding=(1, 1), bias=False)
          (bn1): BatchNorm2d(32, eps=1e-05, momentum=0.1, affine=True)
          (relu): ReLU(inplace)
        )
        (block3): BasicBlock3x3(
          (conv1): Conv2d (32, 16, kernel_size=(3, 3), stride=(1, 1), padding=(1, 1), bias=False)
          (bn1): BatchNorm2d(16, eps=1e-05, momentum=0.1, affine=True)
          (relu): ReLU(inplace)
        )
        (block4): BasicBlock3x3(
          (conv1): Conv2d (16, 16, kernel_size=(3, 3), stride=(1, 1), padding=(1, 1), bias=False)
          (bn1): BatchNorm2d(16, eps=1e-05, momentum=0.1, affine=True)
          (relu): ReLU(inplace)
        )
        (downsample): Sequential(
          (0): Conv2d (64, 128, kernel_size=(1, 1), stride=(1, 1), bias=False)
          (1): BatchNorm2d(128, eps=1e-05, momentum=0.1, affine=True)
          (2): ReLU(inplace)
          (3): MaxPool2d(kernel_size=(3, 3), stride=(2, 2), padding=(1, 1), dilation=(1, 1))
        )
      )
      (1): Bottleneck(
        (block1): BasicBlock1x1(
          (conv1): Conv2d (128, 64, kernel_size=(1, 1), stride=(1, 1), bias=False)
          (bn1): BatchNorm2d(64, eps=1e-05, momentum=0.1, affine=True)
          (relu): ReLU(inplace)
        )
        (block2): BasicBlock3x3(
          (conv1): Conv2d (64, 32, kernel_size=(3, 3), stride=(1, 1), padding=(1, 1), bias=False)
          (bn1): BatchNorm2d(32, eps=1e-05, momentum=0.1, affine=True)
          (relu): ReLU(inplace)
        )
        (block3): BasicBlock3x3(
          (conv1): Conv2d (32, 16, kernel_size=(3, 3), stride=(1, 1), padding=(1, 1), bias=False)
          (bn1): BatchNorm2d(16, eps=1e-05, momentum=0.1, affine=True)
          (relu): ReLU(inplace)
        )
        (block4): BasicBlock3x3(
          (conv1): Conv2d (16, 16, kernel_size=(3, 3), stride=(1, 1), padding=(1, 1), bias=False)
          (bn1): BatchNorm2d(16, eps=1e-05, momentum=0.1, affine=True)
          (relu): ReLU(inplace)
        )
      )
      (2): Bottleneck(
        (block1): BasicBlock1x1(
          (conv1): Conv2d (128, 64, kernel_size=(1, 1), stride=(1, 1), bias=False)
          (bn1): BatchNorm2d(64, eps=1e-05, momentum=0.1, affine=True)
          (relu): ReLU(inplace)
        )
        (block2): BasicBlock3x3(
          (conv1): Conv2d (64, 32, kernel_size=(3, 3), stride=(1, 1), padding=(1, 1), bias=False)
          (bn1): BatchNorm2d(32, eps=1e-05, momentum=0.1, affine=True)
          (relu): ReLU(inplace)
        )
        (block3): BasicBlock3x3(
          (conv1): Conv2d (32, 16, kernel_size=(3, 3), stride=(1, 1), padding=(1, 1), bias=False)
          (bn1): BatchNorm2d(16, eps=1e-05, momentum=0.1, affine=True)
          (relu): ReLU(inplace)
        )
        (block4): BasicBlock3x3(
          (conv1): Conv2d (16, 16, kernel_size=(3, 3), stride=(1, 1), padding=(1, 1), bias=False)
          (bn1): BatchNorm2d(16, eps=1e-05, momentum=0.1, affine=True)
          (relu): ReLU(inplace)
        )
      )
    )
    (layer3): Sequential(
      (0): Bottleneck(
        (block1): BasicBlock1x1(
          (conv1): Conv2d (256, 128, kernel_size=(1, 1), stride=(1, 1), bias=False)
          (bn1): BatchNorm2d(128, eps=1e-05, momentum=0.1, affine=True)
          (relu): ReLU(inplace)
        )
        (block2): BasicBlock3x3(
          (conv1): Conv2d (128, 64, kernel_size=(3, 3), stride=(1, 1), padding=(1, 1), bias=False)
          (bn1): BatchNorm2d(64, eps=1e-05, momentum=0.1, affine=True)
          (relu): ReLU(inplace)
        )
        (block3): BasicBlock3x3(
          (conv1): Conv2d (64, 32, kernel_size=(3, 3), stride=(1, 1), padding=(1, 1), bias=False)
          (bn1): BatchNorm2d(32, eps=1e-05, momentum=0.1, affine=True)
          (relu): ReLU(inplace)
        )
        (block4): BasicBlock3x3(
          (conv1): Conv2d (32, 32, kernel_size=(3, 3), stride=(1, 1), padding=(1, 1), bias=False)
          (bn1): BatchNorm2d(32, eps=1e-05, momentum=0.1, affine=True)
          (relu): ReLU(inplace)
        )
        (downsample): Sequential(
          (0): Conv2d (128, 256, kernel_size=(1, 1), stride=(1, 1), bias=False)
          (1): BatchNorm2d(256, eps=1e-05, momentum=0.1, affine=True)
          (2): ReLU(inplace)
          (3): MaxPool2d(kernel_size=(3, 3), stride=(2, 2), padding=(1, 1), dilation=(1, 1))
        )
      )
      (1): Bottleneck(
        (block1): BasicBlock1x1(
          (conv1): Conv2d (256, 128, kernel_size=(1, 1), stride=(1, 1), bias=False)
          (bn1): BatchNorm2d(128, eps=1e-05, momentum=0.1, affine=True)
          (relu): ReLU(inplace)
        )
        (block2): BasicBlock3x3(
          (conv1): Conv2d (128, 64, kernel_size=(3, 3), stride=(1, 1), padding=(1, 1), bias=False)
          (bn1): BatchNorm2d(64, eps=1e-05, momentum=0.1, affine=True)
          (relu): ReLU(inplace)
        )
        (block3): BasicBlock3x3(
          (conv1): Conv2d (64, 32, kernel_size=(3, 3), stride=(1, 1), padding=(1, 1), bias=False)
          (bn1): BatchNorm2d(32, eps=1e-05, momentum=0.1, affine=True)
          (relu): ReLU(inplace)
        )
        (block4): BasicBlock3x3(
          (conv1): Conv2d (32, 32, kernel_size=(3, 3), stride=(1, 1), padding=(1, 1), bias=False)
          (bn1): BatchNorm2d(32, eps=1e-05, momentum=0.1, affine=True)
          (relu): ReLU(inplace)
        )
      )
      (2): Bottleneck(
        (block1): BasicBlock1x1(
          (conv1): Conv2d (256, 128, kernel_size=(1, 1), stride=(1, 1), bias=False)
          (bn1): BatchNorm2d(128, eps=1e-05, momentum=0.1, affine=True)
          (relu): ReLU(inplace)
        )
        (block2): BasicBlock3x3(
          (conv1): Conv2d (128, 64, kernel_size=(3, 3), stride=(1, 1), padding=(1, 1), bias=False)
          (bn1): BatchNorm2d(64, eps=1e-05, momentum=0.1, affine=True)
          (relu): ReLU(inplace)
        )
        (block3): BasicBlock3x3(
          (conv1): Conv2d (64, 32, kernel_size=(3, 3), stride=(1, 1), padding=(1, 1), bias=False)
          (bn1): BatchNorm2d(32, eps=1e-05, momentum=0.1, affine=True)
          (relu): ReLU(inplace)
        )
        (block4): BasicBlock3x3(
          (conv1): Conv2d (32, 32, kernel_size=(3, 3), stride=(1, 1), padding=(1, 1), bias=False)
          (bn1): BatchNorm2d(32, eps=1e-05, momentum=0.1, affine=True)
          (relu): ReLU(inplace)
        )
      )
      (3): Bottleneck(
        (block1): BasicBlock1x1(
          (conv1): Conv2d (256, 128, kernel_size=(1, 1), stride=(1, 1), bias=False)
          (bn1): BatchNorm2d(128, eps=1e-05, momentum=0.1, affine=True)
          (relu): ReLU(inplace)
        )
        (block2): BasicBlock3x3(
          (conv1): Conv2d (128, 64, kernel_size=(3, 3), stride=(1, 1), padding=(1, 1), bias=False)
          (bn1): BatchNorm2d(64, eps=1e-05, momentum=0.1, affine=True)
          (relu): ReLU(inplace)
        )
        (block3): BasicBlock3x3(
          (conv1): Conv2d (64, 32, kernel_size=(3, 3), stride=(1, 1), padding=(1, 1), bias=False)
          (bn1): BatchNorm2d(32, eps=1e-05, momentum=0.1, affine=True)
          (relu): ReLU(inplace)
        )
        (block4): BasicBlock3x3(
          (conv1): Conv2d (32, 32, kernel_size=(3, 3), stride=(1, 1), padding=(1, 1), bias=False)
          (bn1): BatchNorm2d(32, eps=1e-05, momentum=0.1, affine=True)
          (relu): ReLU(inplace)
        )
      )
    )
  )
  (relu): ReLU(inplace)
  (upsample5): ConvTranspose2d (256, 256, kernel_size=(4, 4), stride=(2, 2), padding=(1, 1))
  (upsample4): ConvTranspose2d (256, 256, kernel_size=(4, 4), stride=(2, 2), padding=(1, 1))
  (bn_s5): BatchNorm2d(256, eps=1e-05, momentum=0.1, affine=True)
  (bn_s4): BatchNorm2d(256, eps=1e-05, momentum=0.1, affine=True)
  (predict3): Conv2d (256, 13, kernel_size=(1, 1), stride=(1, 1))
)
make module dist
SB(
  (backbone): Dnet(
    (conv1): Conv2d (3, 32, kernel_size=(5, 5), stride=(2, 2), padding=(2, 2), bias=False)
    (bn1): BatchNorm2d(32, eps=1e-05, momentum=0.1, affine=True)
    (relu): ReLU(inplace)
    (maxpool): MaxPool2d(kernel_size=(3, 3), stride=(2, 2), padding=(1, 1), dilation=(1, 1))
    (avgpool): AvgPool2d(kernel_size=7, stride=1, padding=0, ceil_mode=False, count_include_pad=True)
    (layer1): Sequential(
      (0): Bottleneck(
        (block1): BasicBlock1x1(
          (conv1): Conv2d (64, 32, kernel_size=(1, 1), stride=(1, 1), bias=False)
          (bn1): BatchNorm2d(32, eps=1e-05, momentum=0.1, affine=True)
          (relu): ReLU(inplace)
        )
        (block2): BasicBlock3x3(
          (conv1): Conv2d (32, 16, kernel_size=(3, 3), stride=(1, 1), padding=(1, 1), bias=False)
          (bn1): BatchNorm2d(16, eps=1e-05, momentum=0.1, affine=True)
          (relu): ReLU(inplace)
        )
        (block3): BasicBlock3x3(
          (conv1): Conv2d (16, 8, kernel_size=(3, 3), stride=(1, 1), padding=(1, 1), bias=False)
          (bn1): BatchNorm2d(8, eps=1e-05, momentum=0.1, affine=True)
          (relu): ReLU(inplace)
        )
        (block4): BasicBlock3x3(
          (conv1): Conv2d (8, 8, kernel_size=(3, 3), stride=(1, 1), padding=(1, 1), bias=False)
          (bn1): BatchNorm2d(8, eps=1e-05, momentum=0.1, affine=True)
          (relu): ReLU(inplace)
        )
        (downsample): Sequential(
          (0): Conv2d (32, 64, kernel_size=(1, 1), stride=(1, 1), bias=False)
          (1): BatchNorm2d(64, eps=1e-05, momentum=0.1, affine=True)
          (2): ReLU(inplace)
          (3): MaxPool2d(kernel_size=(3, 3), stride=(2, 2), padding=(1, 1), dilation=(1, 1))
        )
      )
      (1): Bottleneck(
        (block1): BasicBlock1x1(
          (conv1): Conv2d (64, 32, kernel_size=(1, 1), stride=(1, 1), bias=False)
          (bn1): BatchNorm2d(32, eps=1e-05, momentum=0.1, affine=True)
          (relu): ReLU(inplace)
        )
        (block2): BasicBlock3x3(
          (conv1): Conv2d (32, 16, kernel_size=(3, 3), stride=(1, 1), padding=(1, 1), bias=False)
          (bn1): BatchNorm2d(16, eps=1e-05, momentum=0.1, affine=True)
          (relu): ReLU(inplace)
        )
        (block3): BasicBlock3x3(
          (conv1): Conv2d (16, 8, kernel_size=(3, 3), stride=(1, 1), padding=(1, 1), bias=False)
          (bn1): BatchNorm2d(8, eps=1e-05, momentum=0.1, affine=True)
          (relu): ReLU(inplace)
        )
        (block4): BasicBlock3x3(
          (conv1): Conv2d (8, 8, kernel_size=(3, 3), stride=(1, 1), padding=(1, 1), bias=False)
          (bn1): BatchNorm2d(8, eps=1e-05, momentum=0.1, affine=True)
          (relu): ReLU(inplace)
        )
      )
    )
    (layer2): Sequential(
      (0): Bottleneck(
        (block1): BasicBlock1x1(
          (conv1): Conv2d (128, 64, kernel_size=(1, 1), stride=(1, 1), bias=False)
          (bn1): BatchNorm2d(64, eps=1e-05, momentum=0.1, affine=True)
          (relu): ReLU(inplace)
        )
        (block2): BasicBlock3x3(
          (conv1): Conv2d (64, 32, kernel_size=(3, 3), stride=(1, 1), padding=(1, 1), bias=False)
          (bn1): BatchNorm2d(32, eps=1e-05, momentum=0.1, affine=True)
          (relu): ReLU(inplace)
        )
        (block3): BasicBlock3x3(
          (conv1): Conv2d (32, 16, kernel_size=(3, 3), stride=(1, 1), padding=(1, 1), bias=False)
          (bn1): BatchNorm2d(16, eps=1e-05, momentum=0.1, affine=True)
          (relu): ReLU(inplace)
        )
        (block4): BasicBlock3x3(
          (conv1): Conv2d (16, 16, kernel_size=(3, 3), stride=(1, 1), padding=(1, 1), bias=False)
          (bn1): BatchNorm2d(16, eps=1e-05, momentum=0.1, affine=True)
          (relu): ReLU(inplace)
        )
        (downsample): Sequential(
          (0): Conv2d (64, 128, kernel_size=(1, 1), stride=(1, 1), bias=False)
          (1): BatchNorm2d(128, eps=1e-05, momentum=0.1, affine=True)
          (2): ReLU(inplace)
          (3): MaxPool2d(kernel_size=(3, 3), stride=(2, 2), padding=(1, 1), dilation=(1, 1))
        )
      )
      (1): Bottleneck(
        (block1): BasicBlock1x1(
          (conv1): Conv2d (128, 64, kernel_size=(1, 1), stride=(1, 1), bias=False)
          (bn1): BatchNorm2d(64, eps=1e-05, momentum=0.1, affine=True)
          (relu): ReLU(inplace)
        )
        (block2): BasicBlock3x3(
          (conv1): Conv2d (64, 32, kernel_size=(3, 3), stride=(1, 1), padding=(1, 1), bias=False)
          (bn1): BatchNorm2d(32, eps=1e-05, momentum=0.1, affine=True)
          (relu): ReLU(inplace)
        )
        (block3): BasicBlock3x3(
          (conv1): Conv2d (32, 16, kernel_size=(3, 3), stride=(1, 1), padding=(1, 1), bias=False)
          (bn1): BatchNorm2d(16, eps=1e-05, momentum=0.1, affine=True)
          (relu): ReLU(inplace)
        )
        (block4): BasicBlock3x3(
          (conv1): Conv2d (16, 16, kernel_size=(3, 3), stride=(1, 1), padding=(1, 1), bias=False)
          (bn1): BatchNorm2d(16, eps=1e-05, momentum=0.1, affine=True)
          (relu): ReLU(inplace)
        )
      )
      (2): Bottleneck(
        (block1): BasicBlock1x1(
          (conv1): Conv2d (128, 64, kernel_size=(1, 1), stride=(1, 1), bias=False)
          (bn1): BatchNorm2d(64, eps=1e-05, momentum=0.1, affine=True)
          (relu): ReLU(inplace)
        )
        (block2): BasicBlock3x3(
          (conv1): Conv2d (64, 32, kernel_size=(3, 3), stride=(1, 1), padding=(1, 1), bias=False)
          (bn1): BatchNorm2d(32, eps=1e-05, momentum=0.1, affine=True)
          (relu): ReLU(inplace)
        )
        (block3): BasicBlock3x3(
          (conv1): Conv2d (32, 16, kernel_size=(3, 3), stride=(1, 1), padding=(1, 1), bias=False)
          (bn1): BatchNorm2d(16, eps=1e-05, momentum=0.1, affine=True)
          (relu): ReLU(inplace)
        )
        (block4): BasicBlock3x3(
          (conv1): Conv2d (16, 16, kernel_size=(3, 3), stride=(1, 1), padding=(1, 1), bias=False)
          (bn1): BatchNorm2d(16, eps=1e-05, momentum=0.1, affine=True)
          (relu): ReLU(inplace)
        )
      )
    )
    (layer3): Sequential(
      (0): Bottleneck(
        (block1): BasicBlock1x1(
          (conv1): Conv2d (256, 128, kernel_size=(1, 1), stride=(1, 1), bias=False)
          (bn1): BatchNorm2d(128, eps=1e-05, momentum=0.1, affine=True)
          (relu): ReLU(inplace)
        )
        (block2): BasicBlock3x3(
          (conv1): Conv2d (128, 64, kernel_size=(3, 3), stride=(1, 1), padding=(1, 1), bias=False)
          (bn1): BatchNorm2d(64, eps=1e-05, momentum=0.1, affine=True)
          (relu): ReLU(inplace)
        )
        (block3): BasicBlock3x3(
          (conv1): Conv2d (64, 32, kernel_size=(3, 3), stride=(1, 1), padding=(1, 1), bias=False)
          (bn1): BatchNorm2d(32, eps=1e-05, momentum=0.1, affine=True)
          (relu): ReLU(inplace)
        )
        (block4): BasicBlock3x3(
          (conv1): Conv2d (32, 32, kernel_size=(3, 3), stride=(1, 1), padding=(1, 1), bias=False)
          (bn1): BatchNorm2d(32, eps=1e-05, momentum=0.1, affine=True)
          (relu): ReLU(inplace)
        )
        (downsample): Sequential(
          (0): Conv2d (128, 256, kernel_size=(1, 1), stride=(1, 1), bias=False)
          (1): BatchNorm2d(256, eps=1e-05, momentum=0.1, affine=True)
          (2): ReLU(inplace)
          (3): MaxPool2d(kernel_size=(3, 3), stride=(2, 2), padding=(1, 1), dilation=(1, 1))
        )
      )
      (1): Bottleneck(
        (block1): BasicBlock1x1(
          (conv1): Conv2d (256, 128, kernel_size=(1, 1), stride=(1, 1), bias=False)
          (bn1): BatchNorm2d(128, eps=1e-05, momentum=0.1, affine=True)
          (relu): ReLU(inplace)
        )
        (block2): BasicBlock3x3(
          (conv1): Conv2d (128, 64, kernel_size=(3, 3), stride=(1, 1), padding=(1, 1), bias=False)
          (bn1): BatchNorm2d(64, eps=1e-05, momentum=0.1, affine=True)
          (relu): ReLU(inplace)
        )
        (block3): BasicBlock3x3(
          (conv1): Conv2d (64, 32, kernel_size=(3, 3), stride=(1, 1), padding=(1, 1), bias=False)
          (bn1): BatchNorm2d(32, eps=1e-05, momentum=0.1, affine=True)
          (relu): ReLU(inplace)
        )
        (block4): BasicBlock3x3(
          (conv1): Conv2d (32, 32, kernel_size=(3, 3), stride=(1, 1), padding=(1, 1), bias=False)
          (bn1): BatchNorm2d(32, eps=1e-05, momentum=0.1, affine=True)
          (relu): ReLU(inplace)
        )
      )
      (2): Bottleneck(
        (block1): BasicBlock1x1(
          (conv1): Conv2d (256, 128, kernel_size=(1, 1), stride=(1, 1), bias=False)
          (bn1): BatchNorm2d(128, eps=1e-05, momentum=0.1, affine=True)
          (relu): ReLU(inplace)
        )
        (block2): BasicBlock3x3(
          (conv1): Conv2d (128, 64, kernel_size=(3, 3), stride=(1, 1), padding=(1, 1), bias=False)
          (bn1): BatchNorm2d(64, eps=1e-05, momentum=0.1, affine=True)
          (relu): ReLU(inplace)
        )
        (block3): BasicBlock3x3(
          (conv1): Conv2d (64, 32, kernel_size=(3, 3), stride=(1, 1), padding=(1, 1), bias=False)
          (bn1): BatchNorm2d(32, eps=1e-05, momentum=0.1, affine=True)
          (relu): ReLU(inplace)
        )
        (block4): BasicBlock3x3(
          (conv1): Conv2d (32, 32, kernel_size=(3, 3), stride=(1, 1), padding=(1, 1), bias=False)
          (bn1): BatchNorm2d(32, eps=1e-05, momentum=0.1, affine=True)
          (relu): ReLU(inplace)
        )
      )
      (3): Bottleneck(
        (block1): BasicBlock1x1(
          (conv1): Conv2d (256, 128, kernel_size=(1, 1), stride=(1, 1), bias=False)
          (bn1): BatchNorm2d(128, eps=1e-05, momentum=0.1, affine=True)
          (relu): ReLU(inplace)
        )
        (block2): BasicBlock3x3(
          (conv1): Conv2d (128, 64, kernel_size=(3, 3), stride=(1, 1), padding=(1, 1), bias=False)
          (bn1): BatchNorm2d(64, eps=1e-05, momentum=0.1, affine=True)
          (relu): ReLU(inplace)
        )
        (block3): BasicBlock3x3(
          (conv1): Conv2d (64, 32, kernel_size=(3, 3), stride=(1, 1), padding=(1, 1), bias=False)
          (bn1): BatchNorm2d(32, eps=1e-05, momentum=0.1, affine=True)
          (relu): ReLU(inplace)
        )
        (block4): BasicBlock3x3(
          (conv1): Conv2d (32, 32, kernel_size=(3, 3), stride=(1, 1), padding=(1, 1), bias=False)
          (bn1): BatchNorm2d(32, eps=1e-05, momentum=0.1, affine=True)
          (relu): ReLU(inplace)
        )
      )
    )
  )
  (relu): ReLU(inplace)
  (upsample5): ConvTranspose2d (256, 256, kernel_size=(4, 4), stride=(2, 2), padding=(1, 1))
  (upsample4): ConvTranspose2d (256, 256, kernel_size=(4, 4), stride=(2, 2), padding=(1, 1))
  (bn_s5): BatchNorm2d(256, eps=1e-05, momentum=0.1, affine=True)
  (bn_s4): BatchNorm2d(256, eps=1e-05, momentum=0.1, affine=True)
  (predict3): Conv2d (256, 13, kernel_size=(1, 1), stride=(1, 1))
)
make module dist
read meta done
read meta done
read meta done
read meta done
read meta done
read meta done
read meta done
read meta done
Epoch: [5][0/1099]	Time 25.635 (25.635)	Data 23.930 (23.930) LR 0.00200 kpt_Loss 0.6882 (0.6882)	Loss 0.6882 (0.6882)	
Progress: 5496 / 109900 [5%], Speed: 25.635 s/iter, ETA 30:23:26 (D:H:M)
…
